…
I1119 19:24:53.593636 14011 solver.cpp:91] Creating training net from net file: /home/lbk/ocr/LSTM/caffe/mnist_train_v2.prototxt
I1119 19:24:53.593813 14011 net.cpp:322] The NetState phase (0) differed from the phase (1) specified by a rule in layer mnist
I1119 19:24:53.593904 14011 net.cpp:58] Initializing net from parameters: 
name: "LeNet"
state {
  phase: TRAIN
}
layer {
  name: "mnist"
  type: "Data"
  top: "data"
  top: "label"
  include {
    phase: TRAIN
  }
  transform_param {
    scale: 0.00390625
  }
  data_param {
    source: "/media/lbk/ubuntu file/dataset/mnist/caffe/mnist_train_lmdb"
    batch_size: 128
    backend: LMDB
  }
}
layer {
  name: "reshape"
  type: "Reshape"
  bottom: "data"
  top: "reshape1"
  reshape_param {
    shape {
      dim: 28
      dim: 128
      dim: 28
    }
  }
}
layer {
  name: "cont"
  type: "HDF5Data"
  top: "cont"
  hdf5_data_param {
    source: "/home/lbk/ocr/LSTM/caffe/lstm_conv_h5.txt"
    batch_size: 128
  }
}
layer {
  name: "reshape1"
  type: "Reshape"
  bottom: "cont"
  top: "cont1"
  reshape_param {
    shape {
      dim: 28
      dim: 128
    }
  }
}
layer {
  name: "lstm1"
  type: "LSTM"
  bottom: "reshape1"
  bottom: "cont1"
  top: "lstm1"
  recurrent_param {
    num_output: 128
    weight_filler {
      type: "uniform"
      min: -0.08
      max: 0.08
    }
    bias_filler {
      type: "constant"
      value: 0
    }
  }
}
layer {
  name: "slice"
  type: "Slice"
  bottom: "lstm1"
  top: "output1"
  top: "output2"
  slice_param {
    slice_point: 27
    axis: 0
  }
}
layer {
  name: "reshape2"
  type: "Reshape"
  bottom: "output2"
  top: "reshape2"
  reshape_param {
    shape {
      dim: 128
      dim: 1
      dim: 128
    }
  }
}
layer {
  name: "fc"
  type: "InnerProduct"
  bottom: "reshape2"
  top: "fc"
  inner_product_param {
    num_output: 10
    weight_filler {
      type: "gaussian"
      std: 0.005
    }
    bias_filler {
      type: "constant"
      value: 0.1
    }
  }
}
layer {
  name: "loss"
  type: "SoftmaxWithLoss"
  bottom: "fc"
  bottom: "label"
  top: "loss"
}
I1119 19:24:53.593950 14011 layer_factory.hpp:77] Creating layer mnist
I1119 19:24:53.594983 14011 net.cpp:100] Creating Layer mnist
I1119 19:24:53.594996 14011 net.cpp:408] mnist -> data
I1119 19:24:53.595010 14011 net.cpp:408] mnist -> label
I1119 19:24:53.623720 14022 db_lmdb.cpp:38] Opened lmdb /media/lbk/ubuntu file/dataset/mnist/caffe/mnist_train_lmdb
I1119 19:24:53.639894 14011 data_layer.cpp:41] output data size: 128,1,28,28
I1119 19:24:53.641834 14011 net.cpp:150] Setting up mnist
I1119 19:24:53.641857 14011 net.cpp:157] Top shape: 128 1 28 28 (100352)
I1119 19:24:53.641863 14011 net.cpp:157] Top shape: 128 (128)
I1119 19:24:53.641867 14011 net.cpp:165] Memory required for data: 401920
I1119 19:24:53.641875 14011 layer_factory.hpp:77] Creating layer reshape
I1119 19:24:53.641901 14011 net.cpp:100] Creating Layer reshape
I1119 19:24:53.641906 14011 net.cpp:434] reshape <- data
I1119 19:24:53.641916 14011 net.cpp:408] reshape -> reshape1
I1119 19:24:53.642015 14011 net.cpp:150] Setting up reshape
I1119 19:24:53.642032 14011 net.cpp:157] Top shape: 28 128 28 (100352)
I1119 19:24:53.642046 14011 net.cpp:165] Memory required for data: 803328
I1119 19:24:53.642077 14011 layer_factory.hpp:77] Creating layer cont
I1119 19:24:53.642102 14011 net.cpp:100] Creating Layer cont
I1119 19:24:53.642122 14011 net.cpp:408] cont -> cont
I1119 19:24:53.642144 14011 hdf5_data_layer.cpp:79] Loading list of HDF5 filenames from: /home/lbk/ocr/LSTM/caffe/lstm_conv_h5.txt
I1119 19:24:53.642211 14011 hdf5_data_layer.cpp:93] Number of HDF5 files: 1
I1119 19:24:53.643000 14011 hdf5.cpp:32] Datatype class: H5T_FLOAT
I1119 19:24:53.644182 14011 net.cpp:150] Setting up cont
I1119 19:24:53.644214 14011 net.cpp:157] Top shape: 128 28 (3584)
I1119 19:24:53.644222 14011 net.cpp:165] Memory required for data: 817664
I1119 19:24:53.644228 14011 layer_factory.hpp:77] Creating layer reshape1
I1119 19:24:53.644239 14011 net.cpp:100] Creating Layer reshape1
I1119 19:24:53.644246 14011 net.cpp:434] reshape1 <- cont
I1119 19:24:53.644255 14011 net.cpp:408] reshape1 -> cont1
I1119 19:24:53.644292 14011 net.cpp:150] Setting up reshape1
I1119 19:24:53.644300 14011 net.cpp:157] Top shape: 28 128 (3584)
I1119 19:24:53.644304 14011 net.cpp:165] Memory required for data: 832000
I1119 19:24:53.644309 14011 layer_factory.hpp:77] Creating layer lstm1
I1119 19:24:53.644317 14011 net.cpp:100] Creating Layer lstm1
I1119 19:24:53.644325 14011 net.cpp:434] lstm1 <- reshape1
I1119 19:24:53.644332 14011 net.cpp:434] lstm1 <- cont1
I1119 19:24:53.644338 14011 net.cpp:408] lstm1 -> lstm1
I1119 19:24:53.644346 14011 recurrent_layer.cpp:20] Initializing recurrent layer: assuming input batch contains 28 timesteps of 128 independent streams.
I1119 19:24:53.645256 14011 net.cpp:58] Initializing net from parameters: 
layer {
  name: "lstm1_"
  type: "Input"
  top: "x"
  top: "cont"
  input_param {
    shape {
      dim: 28
      dim: 128
      dim: 28
    }
    shape {
      dim: 28
      dim: 128
    }
  }
}
layer {
  name: "lstm1_"
  type: "Input"
  top: "c_0"
  top: "h_0"
  input_param {
    shape {
      dim: 1
      dim: 128
      dim: 128
    }
    shape {
      dim: 1
      dim: 128
      dim: 128
    }
  }
}
layer {
  name: "lstm1_cont_slice"
  type: "Slice"
  bottom: "cont"
  top: "cont_1"
  top: "cont_2"
  top: "cont_3"
  top: "cont_4"
  top: "cont_5"
  top: "cont_6"
  top: "cont_7"
  top: "cont_8"
  top: "cont_9"
  top: "cont_10"
  top: "cont_11"
  top: "cont_12"
  top: "cont_13"
  top: "cont_14"
  top: "cont_15"
  top: "cont_16"
  top: "cont_17"
  top: "cont_18"
  top: "cont_19"
  top: "cont_20"
  top: "cont_21"
  top: "cont_22"
  top: "cont_23"
  top: "cont_24"
  top: "cont_25"
  top: "cont_26"
  top: "cont_27"
  top: "cont_28"
  slice_param {
    axis: 0
  }
}
layer {
  name: "lstm1_x_transform"
  type: "InnerProduct"
  bottom: "x"
  top: "W_xc_x"
  param {
    name: "W_xc"
  }
  param {
    name: "b_c"
  }
  propagate_down: true
  inner_product_param {
    num_output: 512
    bias_term: true
    weight_filler {
      type: "uniform"
      min: -0.08
      max: 0.08
    }
    bias_filler {
      type: "constant"
      value: 0
    }
    axis: 2
  }
}
layer {
  name: "lstm1_W_xc_x_slice"
  type: "Slice"
  bottom: "W_xc_x"
  top: "W_xc_x_1"
  top: "W_xc_x_2"
  top: "W_xc_x_3"
  top: "W_xc_x_4"
  top: "W_xc_x_5"
  top: "W_xc_x_6"
  top: "W_xc_x_7"
  top: "W_xc_x_8"
  top: "W_xc_x_9"
  top: "W_xc_x_10"
  top: "W_xc_x_11"
  top: "W_xc_x_12"
  top: "W_xc_x_13"
  top: "W_xc_x_14"
  top: "W_xc_x_15"
  top: "W_xc_x_16"
  top: "W_xc_x_17"
  top: "W_xc_x_18"
  top: "W_xc_x_19"
  top: "W_xc_x_20"
  top: "W_xc_x_21"
  top: "W_xc_x_22"
  top: "W_xc_x_23"
  top: "W_xc_x_24"
  top: "W_xc_x_25"
  top: "W_xc_x_26"
  top: "W_xc_x_27"
  top: "W_xc_x_28"
  slice_param {
    axis: 0
  }
}
layer {
  name: "lstm1_h_conted_0"
  type: "Scale"
  bottom: "h_0"
  bottom: "cont_1"
  top: "h_conted_0"
  scale_param {
    axis: 0
  }
}
layer {
  name: "lstm1_transform_1"
  type: "InnerProduct"
  bottom: "h_conted_0"
  top: "W_hc_h_0"
  param {
    name: "W_hc"
  }
  inner_product_param {
    num_output: 512
    bias_term: false
    weight_filler {
      type: "uniform"
      min: -0.08
      max: 0.08
    }
    axis: 2
  }
}
layer {
  name: "lstm1_gate_input_1"
  type: "Eltwise"
  bottom: "W_hc_h_0"
  bottom: "W_xc_x_1"
  top: "gate_input_1"
  eltwise_param {
    operation: SUM
  }
}
layer {
  name: "lstm1_unit_1"
  type: "LSTMUnit"
  bottom: "c_0"
  bottom: "gate_input_1"
  bottom: "cont_1"
  top: "c_1"
  top: "h_1"
}
layer {
  name: "lstm1_h_conted_1"
  type: "Scale"
  bottom: "h_1"
  bottom: "cont_2"
  top: "h_conted_1"
  scale_param {
    axis: 0
  }
}
layer {
  name: "lstm1_transform_2"
  type: "InnerProduct"
  bottom: "h_conted_1"
  top: "W_hc_h_1"
  param {
    name: "W_hc"
  }
  inner_product_param {
    num_output: 512
    bias_term: false
    weight_filler {
      type: "uniform"
      min: -0.08
      max: 0.08
    }
    axis: 2
  }
}
layer {
  name: "lstm1_gate_input_2"
  type: "Eltwise"
  bottom: "W_hc_h_1"
  bottom: "W_xc_x_2"
  top: "gate_input_2"
  eltwise_param {
    operation: SUM
  }
}
layer {
  name: "lstm1_unit_2"
  type: "LSTMUnit"
  bottom: "c_1"
  bottom: "gate_input_2"
  bottom: "cont_2"
  top: "c_2"
  top: "h_2"
}
layer {
  name: "lstm1_h_conted_2"
  type: "Scale"
  bottom: "h_2"
  bottom: "cont_3"
  top: "h_conted_2"
  scale_param {
    axis: 0
  }
}
layer {
  name: "lstm1_transform_3"
  type: "InnerProduct"
  bottom: "h_conted_2"
  top: "W_hc_h_2"
  param {
    name: "W_hc"
  }
  inner_product_param {
    num_output: 512
    bias_term: false
    weight_filler {
      type: "uniform"
      min: -0.08
      max: 0.08
    }
    axis: 2
  }
}
layer {
  name: "lstm1_gate_input_3"
  type: "Eltwise"
  bottom: "W_hc_h_2"
  bottom: "W_xc_x_3"
  top: "gate_input_3"
  eltwise_param {
    operation: SUM
  }
}
layer {
  name: "lstm1_unit_3"
  type: "LSTMUnit"
  bottom: "c_2"
  bottom: "gate_input_3"
  bottom: "cont_3"
  top: "c_3"
  top: "h_3"
}
layer {
  name: "lstm1_h_conted_3"
  type: "Scale"
  bottom: "h_3"
  bottom: "cont_4"
  top: "h_conted_3"
  scale_param {
    axis: 0
  }
}
layer {
  name: "lstm1_transform_4"
  type: "InnerProduct"
  bottom: "h_conted_3"
  top: "W_hc_h_3"
  param {
    name: "W_hc"
  }
  inner_product_param {
    num_output: 512
    bias_term: false
    weight_filler {
      type: "uniform"
      min: -0.08
      max: 0.08
    }
    axis: 2
  }
}
layer {
  name: "lstm1_gate_input_4"
  type: "Eltwise"
  bottom: "W_hc_h_3"
  bottom: "W_xc_x_4"
  top: "gate_input_4"
  eltwise_param {
    operation: SUM
  }
}
layer {
  name: "lstm1_unit_4"
  type: "LSTMUnit"
  bottom: "c_3"
  bottom: "gate_input_4"
  bottom: "cont_4"
  top: "c_4"
  top: "h_4"
}
layer {
  name: "lstm1_h_conted_4"
  type: "Scale"
  bottom: "h_4"
  bottom: "cont_5"
  top: "h_conted_4"
  scale_param {
    axis: 0
  }
}
layer {
  name: "lstm1_transform_5"
  type: "InnerProduct"
  bottom: "h_conted_4"
  top: "W_hc_h_4"
  param {
    name: "W_hc"
  }
  inner_product_param {
    num_output: 512
    bias_term: false
    weight_filler {
      type: "uniform"
      min: -0.08
      max: 0.08
    }
    axis: 2
  }
}
layer {
  name: "lstm1_gate_input_5"
  type: "Eltwise"
  bottom: "W_hc_h_4"
  bottom: "W_xc_x_5"
  top: "gate_input_5"
  eltwise_param {
    operation: SUM
  }
}
layer {
  name: "lstm1_unit_5"
  type: "LSTMUnit"
  bottom: "c_4"
  bottom: "gate_input_5"
  bottom: "cont_5"
  top: "c_5"
  top: "h_5"
}
layer {
  name: "lstm1_h_conted_5"
  type: "Scale"
  bottom: "h_5"
  bottom: "cont_6"
  top: "h_conted_5"
  scale_param {
    axis: 0
  }
}
layer {
  name: "lstm1_transform_6"
  type: "InnerProduct"
  bottom: "h_conted_5"
  top: "W_hc_h_5"
  param {
    name: "W_hc"
  }
  inner_product_param {
    num_output: 512
    bias_term: false
    weight_filler {
      type: "uniform"
      min: -0.08
      max: 0.08
    }
    axis: 2
  }
}
layer {
  name: "lstm1_gate_input_6"
  type: "Eltwise"
  bottom: "W_hc_h_5"
  bottom: "W_xc_x_6"
  top: "gate_input_6"
  eltwise_param {
    operation: SUM
  }
}
layer {
  name: "lstm1_unit_6"
  type: "LSTMUnit"
  bottom: "c_5"
  bottom: "gate_input_6"
  bottom: "cont_6"
  top: "c_6"
  top: "h_6"
}
layer {
  name: "lstm1_h_conted_6"
  type: "Scale"
  bottom: "h_6"
  bottom: "cont_7"
  top: "h_conted_6"
  scale_param {
    axis: 0
  }
}
layer {
  name: "lstm1_transform_7"
  type: "InnerProduct"
  bottom: "h_conted_6"
  top: "W_hc_h_6"
  param {
    name: "W_hc"
  }
  inner_product_param {
    num_output: 512
    bias_term: false
    weight_filler {
      type: "uniform"
      min: -0.08
      max: 0.08
    }
    axis: 2
  }
}
layer {
  name: "lstm1_gate_input_7"
  type: "Eltwise"
  bottom: "W_hc_h_6"
  bottom: "W_xc_x_7"
  top: "gate_input_7"
  eltwise_param {
    operation: SUM
  }
}
layer {
  name: "lstm1_unit_7"
  type: "LSTMUnit"
  bottom: "c_6"
  bottom: "gate_input_7"
  bottom: "cont_7"
  top: "c_7"
  top: "h_7"
}
layer {
  name: "lstm1_h_conted_7"
  type: "Scale"
  bottom: "h_7"
  bottom: "cont_8"
  top: "h_conted_7"
  scale_param {
    axis: 0
  }
}
layer {
  name: "lstm1_transform_8"
  type: "InnerProduct"
  bottom: "h_conted_7"
  top: "W_hc_h_7"
  param {
    name: "W_hc"
  }
  inner_product_param {
    num_output: 512
    bias_term: false
    weight_filler {
      type: "uniform"
      min: -0.08
      max: 0.08
    }
    axis: 2
  }
}
layer {
  name: "lstm1_gate_input_8"
  type: "Eltwise"
  bottom: "W_hc_h_7"
  bottom: "W_xc_x_8"
  top: "gate_input_8"
  eltwise_param {
    operation: SUM
  }
}
layer {
  name: "lstm1_unit_8"
  type: "LSTMUnit"
  bottom: "c_7"
  bottom: "gate_input_8"
  bottom: "cont_8"
  top: "c_8"
  top: "h_8"
}
layer {
  name: "lstm1_h_conted_8"
  type: "Scale"
  bottom: "h_8"
  bottom: "cont_9"
  top: "h_conted_8"
  scale_param {
    axis: 0
  }
}
layer {
  name: "lstm1_transform_9"
  type: "InnerProduct"
  bottom: "h_conted_8"
  top: "W_hc_h_8"
  param {
    name: "W_hc"
  }
  inner_product_param {
    num_output: 512
    bias_term: false
    weight_filler {
      type: "uniform"
      min: -0.08
      max: 0.08
    }
    axis: 2
  }
}
layer {
  name: "lstm1_gate_input_9"
  type: "Eltwise"
  bottom: "W_hc_h_8"
  bottom: "W_xc_x_9"
  top: "gate_input_9"
  eltwise_param {
    operation: SUM
  }
}
layer {
  name: "lstm1_unit_9"
  type: "LSTMUnit"
  bottom: "c_8"
  bottom: "gate_input_9"
  bottom: "cont_9"
  top: "c_9"
  top: "h_9"
}
layer {
  name: "lstm1_h_conted_9"
  type: "Scale"
  bottom: "h_9"
  bottom: "cont_10"
  top: "h_conted_9"
  scale_param {
    axis: 0
  }
}
layer {
  name: "lstm1_transform_10"
  type: "InnerProduct"
  bottom: "h_conted_9"
  top: "W_hc_h_9"
  param {
    name: "W_hc"
  }
  inner_product_param {
    num_output: 512
    bias_term: false
    weight_filler {
      type: "uniform"
      min: -0.08
      max: 0.08
    }
    axis: 2
  }
}
layer {
  name: "lstm1_gate_input_10"
  type: "Eltwise"
  bottom: "W_hc_h_9"
  bottom: "W_xc_x_10"
  top: "gate_input_10"
  eltwise_param {
    operation: SUM
  }
}
layer {
  name: "lstm1_unit_10"
  type: "LSTMUnit"
  bottom: "c_9"
  bottom: "gate_input_10"
  bottom: "cont_10"
  top: "c_10"
  top: "h_10"
}
layer {
  name: "lstm1_h_conted_10"
  type: "Scale"
  bottom: "h_10"
  bottom: "cont_11"
  top: "h_conted_10"
  scale_param {
    axis: 0
  }
}
layer {
  name: "lstm1_transform_11"
  type: "InnerProduct"
  bottom: "h_conted_10"
  top: "W_hc_h_10"
  param {
    name: "W_hc"
  }
  inner_product_param {
    num_output: 512
    bias_term: false
    weight_filler {
      type: "uniform"
      min: -0.08
      max: 0.08
    }
    axis: 2
  }
}
layer {
  name: "lstm1_gate_input_11"
  type: "Eltwise"
  bottom: "W_hc_h_10"
  bottom: "W_xc_x_11"
  top: "gate_input_11"
  eltwise_param {
    operation: SUM
  }
}
layer {
  name: "lstm1_unit_11"
  type: "LSTMUnit"
  bottom: "c_10"
  bottom: "gate_input_11"
  bottom: "cont_11"
  top: "c_11"
  top: "h_11"
}
layer {
  name: "lstm1_h_conted_11"
  type: "Scale"
  bottom: "h_11"
  bottom: "cont_12"
  top: "h_conted_11"
  scale_param {
    axis: 0
  }
}
layer {
  name: "lstm1_transform_12"
  type: "InnerProduct"
  bottom: "h_conted_11"
  top: "W_hc_h_11"
  param {
    name: "W_hc"
  }
  inner_product_param {
    num_output: 512
    bias_term: false
    weight_filler {
      type: "uniform"
      min: -0.08
      max: 0.08
    }
    axis: 2
  }
}
layer {
  name: "lstm1_gate_input_12"
  type: "Eltwise"
  bottom: "W_hc_h_11"
  bottom: "W_xc_x_12"
  top: "gate_input_12"
  eltwise_param {
    operation: SUM
  }
}
layer {
  name: "lstm1_unit_12"
  type: "LSTMUnit"
  bottom: "c_11"
  bottom: "gate_input_12"
  bottom: "cont_12"
  top: "c_12"
  top: "h_12"
}
layer {
  name: "lstm1_h_conted_12"
  type: "Scale"
  bottom: "h_12"
  bottom: "cont_13"
  top: "h_conted_12"
  scale_param {
    axis: 0
  }
}
layer {
  name: "lstm1_transform_13"
  type: "InnerProduct"
  bottom: "h_conted_12"
  top: "W_hc_h_12"
  param {
    name: "W_hc"
  }
  inner_product_param {
    num_output: 512
    bias_term: false
    weight_filler {
      type: "uniform"
      min: -0.08
      max: 0.08
    }
    axis: 2
  }
}
layer {
  name: "lstm1_gate_input_13"
  type: "Eltwise"
  bottom: "W_hc_h_12"
  bottom: "W_xc_x_13"
  top: "gate_input_13"
  eltwise_param {
    operation: SUM
  }
}
layer {
  name: "lstm1_unit_13"
  type: "LSTMUnit"
  bottom: "c_12"
  bottom: "gate_input_13"
  bottom: "cont_13"
  top: "c_13"
  top: "h_13"
}
layer {
  name: "lstm1_h_conted_13"
  type: "Scale"
  bottom: "h_13"
  bottom: "cont_14"
  top: "h_conted_13"
  scale_param {
    axis: 0
  }
}
layer {
  name: "lstm1_transform_14"
  type: "InnerProduct"
  bottom: "h_conted_13"
  top: "W_hc_h_13"
  param {
    name: "W_hc"
  }
  inner_product_param {
    num_output: 512
    bias_term: false
    weight_filler {
      type: "uniform"
      min: -0.08
      max: 0.08
    }
    axis: 2
  }
}
layer {
  name: "lstm1_gate_input_14"
  type: "Eltwise"
  bottom: "W_hc_h_13"
  bottom: "W_xc_x_14"
  top: "gate_input_14"
  eltwise_param {
    operation: SUM
  }
}
layer {
  name: "lstm1_unit_14"
  type: "LSTMUnit"
  bottom: "c_13"
  bottom: "gate_input_14"
  bottom: "cont_14"
  top: "c_14"
  top: "h_14"
}
layer {
  name: "lstm1_h_conted_14"
  type: "Scale"
  bottom: "h_14"
  bottom: "cont_15"
  top: "h_conted_14"
  scale_param {
    axis: 0
  }
}
layer {
  name: "lstm1_transform_15"
  type: "InnerProduct"
  bottom: "h_conted_14"
  top: "W_hc_h_14"
  param {
    name: "W_hc"
  }
  inner_product_param {
    num_output: 512
    bias_term: false
    weight_filler {
      type: "uniform"
      min: -0.08
      max: 0.08
    }
    axis: 2
  }
}
layer {
  name: "lstm1_gate_input_15"
  type: "Eltwise"
  bottom: "W_hc_h_14"
  bottom: "W_xc_x_15"
  top: "gate_input_15"
  eltwise_param {
    operation: SUM
  }
}
layer {
  name: "lstm1_unit_15"
  type: "LSTMUnit"
  bottom: "c_14"
  bottom: "gate_input_15"
  bottom: "cont_15"
  top: "c_15"
  top: "h_15"
}
layer {
  name: "lstm1_h_conted_15"
  type: "Scale"
  bottom: "h_15"
  bottom: "cont_16"
  top: "h_conted_15"
  scale_param {
    axis: 0
  }
}
layer {
  name: "lstm1_transform_16"
  type: "InnerProduct"
  bottom: "h_conted_15"
  top: "W_hc_h_15"
  param {
    name: "W_hc"
  }
  inner_product_param {
    num_output: 512
    bias_term: false
    weight_filler {
      type: "uniform"
      min: -0.08
      max: 0.08
    }
    axis: 2
  }
}
layer {
  name: "lstm1_gate_input_16"
  type: "Eltwise"
  bottom: "W_hc_h_15"
  bottom: "W_xc_x_16"
  top: "gate_input_16"
  eltwise_param {
    operation: SUM
  }
}
layer {
  name: "lstm1_unit_16"
  type: "LSTMUnit"
  bottom: "c_15"
  bottom: "gate_input_16"
  bottom: "cont_16"
  top: "c_16"
  top: "h_16"
}
layer {
  name: "lstm1_h_conted_16"
  type: "Scale"
  bottom: "h_16"
  bottom: "cont_17"
  top: "h_conted_16"
  scale_param {
    axis: 0
  }
}
layer {
  name: "lstm1_transform_17"
  type: "InnerProduct"
  bottom: "h_conted_16"
  top: "W_hc_h_16"
  param {
    name: "W_hc"
  }
  inner_product_param {
    num_output: 512
    bias_term: false
    weight_filler {
      type: "uniform"
      min: -0.08
      max: 0.08
    }
    axis: 2
  }
}
layer {
  name: "lstm1_gate_input_17"
  type: "Eltwise"
  bottom: "W_hc_h_16"
  bottom: "W_xc_x_17"
  top: "gate_input_17"
  eltwise_param {
    operation: SUM
  }
}
layer {
  name: "lstm1_unit_17"
  type: "LSTMUnit"
  bottom: "c_16"
  bottom: "gate_input_17"
  bottom: "cont_17"
  top: "c_17"
  top: "h_17"
}
layer {
  name: "lstm1_h_conted_17"
  type: "Scale"
  bottom: "h_17"
  bottom: "cont_18"
  top: "h_conted_17"
  scale_param {
    axis: 0
  }
}
layer {
  name: "lstm1_transform_18"
  type: "InnerProduct"
  bottom: "h_conted_17"
  top: "W_hc_h_17"
  param {
    name: "W_hc"
  }
  inner_product_param {
    num_output: 512
    bias_term: false
    weight_filler {
      type: "uniform"
      min: -0.08
      max: 0.08
    }
    axis: 2
  }
}
layer {
  name: "lstm1_gate_input_18"
  type: "Eltwise"
  bottom: "W_hc_h_17"
  bottom: "W_xc_x_18"
  top: "gate_input_18"
  eltwise_param {
    operation: SUM
  }
}
layer {
  name: "lstm1_unit_18"
  type: "LSTMUnit"
  bottom: "c_17"
  bottom: "gate_input_18"
  bottom: "cont_18"
  top: "c_18"
  top: "h_18"
}
layer {
  name: "lstm1_h_conted_18"
  type: "Scale"
  bottom: "h_18"
  bottom: "cont_19"
  top: "h_conted_18"
  scale_param {
    axis: 0
  }
}
layer {
  name: "lstm1_transform_19"
  type: "InnerProduct"
  bottom: "h_conted_18"
  top: "W_hc_h_18"
  param {
    name: "W_hc"
  }
  inner_product_param {
    num_output: 512
    bias_term: false
    weight_filler {
      type: "uniform"
      min: -0.08
      max: 0.08
    }
    axis: 2
  }
}
layer {
  name: "lstm1_gate_input_19"
  type: "Eltwise"
  bottom: "W_hc_h_18"
  bottom: "W_xc_x_19"
  top: "gate_input_19"
  eltwise_param {
    operation: SUM
  }
}
layer {
  name: "lstm1_unit_19"
  type: "LSTMUnit"
  bottom: "c_18"
  bottom: "gate_input_19"
  bottom: "cont_19"
  top: "c_19"
  top: "h_19"
}
layer {
  name: "lstm1_h_conted_19"
  type: "Scale"
  bottom: "h_19"
  bottom: "cont_20"
  top: "h_conted_19"
  scale_param {
    axis: 0
  }
}
layer {
  name: "lstm1_transform_20"
  type: "InnerProduct"
  bottom: "h_conted_19"
  top: "W_hc_h_19"
  param {
    name: "W_hc"
  }
  inner_product_param {
    num_output: 512
    bias_term: false
    weight_filler {
      type: "uniform"
      min: -0.08
      max: 0.08
    }
    axis: 2
  }
}
layer {
  name: "lstm1_gate_input_20"
  type: "Eltwise"
  bottom: "W_hc_h_19"
  bottom: "W_xc_x_20"
  top: "gate_input_20"
  eltwise_param {
    operation: SUM
  }
}
layer {
  name: "lstm1_unit_20"
  type: "LSTMUnit"
  bottom: "c_19"
  bottom: "gate_input_20"
  bottom: "cont_20"
  top: "c_20"
  top: "h_20"
}
layer {
  name: "lstm1_h_conted_20"
  type: "Scale"
  bottom: "h_20"
  bottom: "cont_21"
  top: "h_conted_20"
  scale_param {
    axis: 0
  }
}
layer {
  name: "lstm1_transform_21"
  type: "InnerProduct"
  bottom: "h_conted_20"
  top: "W_hc_h_20"
  param {
    name: "W_hc"
  }
  inner_product_param {
    num_output: 512
    bias_term: false
    weight_filler {
      type: "uniform"
      min: -0.08
      max: 0.08
    }
    axis: 2
  }
}
layer {
  name: "lstm1_gate_input_21"
  type: "Eltwise"
  bottom: "W_hc_h_20"
  bottom: "W_xc_x_21"
  top: "gate_input_21"
  eltwise_param {
    operation: SUM
  }
}
layer {
  name: "lstm1_unit_21"
  type: "LSTMUnit"
  bottom: "c_20"
  bottom: "gate_input_21"
  bottom: "cont_21"
  top: "c_21"
  top: "h_21"
}
layer {
  name: "lstm1_h_conted_21"
  type: "Scale"
  bottom: "h_21"
  bottom: "cont_22"
  top: "h_conted_21"
  scale_param {
    axis: 0
  }
}
layer {
  name: "lstm1_transform_22"
  type: "InnerProduct"
  bottom: "h_conted_21"
  top: "W_hc_h_21"
  param {
    name: "W_hc"
  }
  inner_product_param {
    num_output: 512
    bias_term: false
    weight_filler {
      type: "uniform"
      min: -0.08
      max: 0.08
    }
    axis: 2
  }
}
layer {
  name: "lstm1_gate_input_22"
  type: "Eltwise"
  bottom: "W_hc_h_21"
  bottom: "W_xc_x_22"
  top: "gate_input_22"
  eltwise_param {
    operation: SUM
  }
}
layer {
  name: "lstm1_unit_22"
  type: "LSTMUnit"
  bottom: "c_21"
  bottom: "gate_input_22"
  bottom: "cont_22"
  top: "c_22"
  top: "h_22"
}
layer {
  name: "lstm1_h_conted_22"
  type: "Scale"
  bottom: "h_22"
  bottom: "cont_23"
  top: "h_conted_22"
  scale_param {
    axis: 0
  }
}
layer {
  name: "lstm1_transform_23"
  type: "InnerProduct"
  bottom: "h_conted_22"
  top: "W_hc_h_22"
  param {
    name: "W_hc"
  }
  inner_product_param {
    num_output: 512
    bias_term: false
    weight_filler {
      type: "uniform"
      min: -0.08
      max: 0.08
    }
    axis: 2
  }
}
layer {
  name: "lstm1_gate_input_23"
  type: "Eltwise"
  bottom: "W_hc_h_22"
  bottom: "W_xc_x_23"
  top: "gate_input_23"
  eltwise_param {
    operation: SUM
  }
}
layer {
  name: "lstm1_unit_23"
  type: "LSTMUnit"
  bottom: "c_22"
  bottom: "gate_input_23"
  bottom: "cont_23"
  top: "c_23"
  top: "h_23"
}
layer {
  name: "lstm1_h_conted_23"
  type: "Scale"
  bottom: "h_23"
  bottom: "cont_24"
  top: "h_conted_23"
  scale_param {
    axis: 0
  }
}
layer {
  name: "lstm1_transform_24"
  type: "InnerProduct"
  bottom: "h_conted_23"
  top: "W_hc_h_23"
  param {
    name: "W_hc"
  }
  inner_product_param {
    num_output: 512
    bias_term: false
    weight_filler {
      type: "uniform"
      min: -0.08
      max: 0.08
    }
    axis: 2
  }
}
layer {
  name: "lstm1_gate_input_24"
  type: "Eltwise"
  bottom: "W_hc_h_23"
  bottom: "W_xc_x_24"
  top: "gate_input_24"
  eltwise_param {
    operation: SUM
  }
}
layer {
  name: "lstm1_unit_24"
  type: "LSTMUnit"
  bottom: "c_23"
  bottom: "gate_input_24"
  bottom: "cont_24"
  top: "c_24"
  top: "h_24"
}
layer {
  name: "lstm1_h_conted_24"
  type: "Scale"
  bottom: "h_24"
  bottom: "cont_25"
  top: "h_conted_24"
  scale_param {
    axis: 0
  }
}
layer {
  name: "lstm1_transform_25"
  type: "InnerProduct"
  bottom: "h_conted_24"
  top: "W_hc_h_24"
  param {
    name: "W_hc"
  }
  inner_product_param {
    num_output: 512
    bias_term: false
    weight_filler {
      type: "uniform"
      min: -0.08
      max: 0.08
    }
    axis: 2
  }
}
layer {
  name: "lstm1_gate_input_25"
  type: "Eltwise"
  bottom: "W_hc_h_24"
  bottom: "W_xc_x_25"
  top: "gate_input_25"
  eltwise_param {
    operation: SUM
  }
}
layer {
  name: "lstm1_unit_25"
  type: "LSTMUnit"
  bottom: "c_24"
  bottom: "gate_input_25"
  bottom: "cont_25"
  top: "c_25"
  top: "h_25"
}
layer {
  name: "lstm1_h_conted_25"
  type: "Scale"
  bottom: "h_25"
  bottom: "cont_26"
  top: "h_conted_25"
  scale_param {
    axis: 0
  }
}
layer {
  name: "lstm1_transform_26"
  type: "InnerProduct"
  bottom: "h_conted_25"
  top: "W_hc_h_25"
  param {
    name: "W_hc"
  }
  inner_product_param {
    num_output: 512
    bias_term: false
    weight_filler {
      type: "uniform"
      min: -0.08
      max: 0.08
    }
    axis: 2
  }
}
layer {
  name: "lstm1_gate_input_26"
  type: "Eltwise"
  bottom: "W_hc_h_25"
  bottom: "W_xc_x_26"
  top: "gate_input_26"
  eltwise_param {
    operation: SUM
  }
}
layer {
  name: "lstm1_unit_26"
  type: "LSTMUnit"
  bottom: "c_25"
  bottom: "gate_input_26"
  bottom: "cont_26"
  top: "c_26"
  top: "h_26"
}
layer {
  name: "lstm1_h_conted_26"
  type: "Scale"
  bottom: "h_26"
  bottom: "cont_27"
  top: "h_conted_26"
  scale_param {
    axis: 0
  }
}
layer {
  name: "lstm1_transform_27"
  type: "InnerProduct"
  bottom: "h_conted_26"
  top: "W_hc_h_26"
  param {
    name: "W_hc"
  }
  inner_product_param {
    num_output: 512
    bias_term: false
    weight_filler {
      type: "uniform"
      min: -0.08
      max: 0.08
    }
    axis: 2
  }
}
layer {
  name: "lstm1_gate_input_27"
  type: "Eltwise"
  bottom: "W_hc_h_26"
  bottom: "W_xc_x_27"
  top: "gate_input_27"
  eltwise_param {
    operation: SUM
  }
}
layer {
  name: "lstm1_unit_27"
  type: "LSTMUnit"
  bottom: "c_26"
  bottom: "gate_input_27"
  bottom: "cont_27"
  top: "c_27"
  top: "h_27"
}
layer {
  name: "lstm1_h_conted_27"
  type: "Scale"
  bottom: "h_27"
  bottom: "cont_28"
  top: "h_conted_27"
  scale_param {
    axis: 0
  }
}
layer {
  name: "lstm1_transform_28"
  type: "InnerProduct"
  bottom: "h_conted_27"
  top: "W_hc_h_27"
  param {
    name: "W_hc"
  }
  inner_product_param {
    num_output: 512
    bias_term: false
    weight_filler {
      type: "uniform"
      min: -0.08
      max: 0.08
    }
    axis: 2
  }
}
layer {
  name: "lstm1_gate_input_28"
  type: "Eltwise"
  bottom: "W_hc_h_27"
  bottom: "W_xc_x_28"
  top: "gate_input_28"
  eltwise_param {
    operation: SUM
  }
}
layer {
  name: "lstm1_unit_28"
  type: "LSTMUnit"
  bottom: "c_27"
  bottom: "gate_input_28"
  bottom: "cont_28"
  top: "c_28"
  top: "h_28"
}
layer {
  name: "lstm1_"
  type: "Split"
  bottom: "c_28"
  top: "c_T"
}
layer {
  name: "lstm1_h_concat"
  type: "Concat"
  bottom: "h_1"
  bottom: "h_2"
  bottom: "h_3"
  bottom: "h_4"
  bottom: "h_5"
  bottom: "h_6"
  bottom: "h_7"
  bottom: "h_8"
  bottom: "h_9"
  bottom: "h_10"
  bottom: "h_11"
  bottom: "h_12"
  bottom: "h_13"
  bottom: "h_14"
  bottom: "h_15"
  bottom: "h_16"
  bottom: "h_17"
  bottom: "h_18"
  bottom: "h_19"
  bottom: "h_20"
  bottom: "h_21"
  bottom: "h_22"
  bottom: "h_23"
  bottom: "h_24"
  bottom: "h_25"
  bottom: "h_26"
  bottom: "h_27"
  bottom: "h_28"
  top: "h"
  concat_param {
    axis: 0
  }
}
layer {
  name: "h_pseudoloss"
  type: "Reduction"
  bottom: "h"
  top: "h_pseudoloss"
  loss_weight: 1
}
I1119 19:24:53.646064 14011 layer_factory.hpp:77] Creating layer lstm1_
I1119 19:24:53.646080 14011 net.cpp:100] Creating Layer lstm1_
I1119 19:24:53.646086 14011 net.cpp:408] lstm1_ -> x
I1119 19:24:53.646096 14011 net.cpp:408] lstm1_ -> cont
I1119 19:24:53.646363 14011 net.cpp:150] Setting up lstm1_
I1119 19:24:53.646373 14011 net.cpp:157] Top shape: 28 128 28 (100352)
I1119 19:24:53.646378 14011 net.cpp:157] Top shape: 28 128 (3584)
I1119 19:24:53.646381 14011 net.cpp:165] Memory required for data: 415744
I1119 19:24:53.646386 14011 layer_factory.hpp:77] Creating layer lstm1_
I1119 19:24:53.646394 14011 net.cpp:100] Creating Layer lstm1_
I1119 19:24:53.646404 14011 net.cpp:408] lstm1_ -> c_0
I1119 19:24:53.646411 14011 net.cpp:408] lstm1_ -> h_0
I1119 19:24:53.646451 14011 net.cpp:150] Setting up lstm1_
I1119 19:24:53.646466 14011 net.cpp:157] Top shape: 1 128 128 (16384)
I1119 19:24:53.646471 14011 net.cpp:157] Top shape: 1 128 128 (16384)
I1119 19:24:53.646476 14011 net.cpp:165] Memory required for data: 546816
I1119 19:24:53.646479 14011 layer_factory.hpp:77] Creating layer lstm1_cont_slice
I1119 19:24:53.646487 14011 net.cpp:100] Creating Layer lstm1_cont_slice
I1119 19:24:53.646492 14011 net.cpp:434] lstm1_cont_slice <- cont
I1119 19:24:53.646499 14011 net.cpp:408] lstm1_cont_slice -> cont_1
I1119 19:24:53.646508 14011 net.cpp:408] lstm1_cont_slice -> cont_2
…
I1119 19:24:53.646694 14011 net.cpp:408] lstm1_cont_slice -> cont_21
I1119 19:24:53.646703 14011 net.cpp:408] lstm1_cont_slice -> cont_22
I1119 19:24:53.646711 14011 net.cpp:408] lstm1_cont_slice -> cont_23
I1119 19:24:53.646719 14011 net.cpp:408] lstm1_cont_slice -> cont_24
I1119 19:24:53.646728 14011 net.cpp:408] lstm1_cont_slice -> cont_25
I1119 19:24:53.646736 14011 net.cpp:408] lstm1_cont_slice -> cont_26
I1119 19:24:53.646745 14011 net.cpp:408] lstm1_cont_slice -> cont_27
I1119 19:24:53.646754 14011 net.cpp:408] lstm1_cont_slice -> cont_28
I1119 19:24:53.647001 14011 net.cpp:150] Setting up lstm1_cont_slice
I1119 19:24:53.647011 14011 net.cpp:157] Top shape: 1 128 (128)
I1119 19:24:53.647017 14011 net.cpp:157] Top shape: 1 128 (128)
I1119 19:24:53.647020 14011 net.cpp:157] Top shape: 1 128 (128)
I1119 19:24:53.647025 14011 net.cpp:157] Top shape: 1 128 (128)
I1119 19:24:53.647029 14011 net.cpp:157] Top shape: 1 128 (128)
I1119 19:24:53.647034 14011 net.cpp:157] Top shape: 1 128 (128)
I1119 19:24:53.647038 14011 net.cpp:157] Top shape: 1 128 (128)
I1119 19:24:53.647043 14011 net.cpp:157] Top shape: 1 128 (128)
I1119 19:24:53.647047 14011 net.cpp:157] Top shape: 1 128 (128)
I1119 19:24:53.647053 14011 net.cpp:157] Top shape: 1 128 (128)
I1119 19:24:53.647058 14011 net.cpp:157] Top shape: 1 128 (128)
I1119 19:24:53.647061 14011 net.cpp:157] Top shape: 1 128 (128)
I1119 19:24:53.647066 14011 net.cpp:157] Top shape: 1 128 (128)
I1119 19:24:53.647070 14011 net.cpp:157] Top shape: 1 128 (128)
I1119 19:24:53.647075 14011 net.cpp:157] Top shape: 1 128 (128)
I1119 19:24:53.647079 14011 net.cpp:157] Top shape: 1 128 (128)
I1119 19:24:53.647085 14011 net.cpp:157] Top shape: 1 128 (128)
I1119 19:24:53.647090 14011 net.cpp:157] Top shape: 1 128 (128)
I1119 19:24:53.647094 14011 net.cpp:157] Top shape: 1 128 (128)
I1119 19:24:53.647100 14011 net.cpp:157] Top shape: 1 128 (128)
I1119 19:24:53.647104 14011 net.cpp:157] Top shape: 1 128 (128)
I1119 19:24:53.647110 14011 net.cpp:157] Top shape: 1 128 (128)
I1119 19:24:53.647115 14011 net.cpp:157] Top shape: 1 128 (128)
I1119 19:24:53.647120 14011 net.cpp:157] Top shape: 1 128 (128)
I1119 19:24:53.647125 14011 net.cpp:157] Top shape: 1 128 (128)
I1119 19:24:53.647130 14011 net.cpp:157] Top shape: 1 128 (128)
I1119 19:24:53.647135 14011 net.cpp:157] Top shape: 1 128 (128)
I1119 19:24:53.647140 14011 net.cpp:157] Top shape: 1 128 (128)
I1119 19:24:53.647143 14011 net.cpp:165] Memory required for data: 561152
I1119 19:24:53.647146 14011 layer_factory.hpp:77] Creating layer cont_1_lstm1_cont_slice_0_split
I1119 19:24:53.647153 14011 net.cpp:100] Creating Layer cont_1_lstm1_cont_slice_0_split
I1119 19:24:53.647158 14011 net.cpp:434] cont_1_lstm1_cont_slice_0_split <- cont_1
I1119 19:24:53.647164 14011 net.cpp:408] cont_1_lstm1_cont_slice_0_split -> cont_1_lstm1_cont_slice_0_split_0
I1119 19:24:53.647176 14011 net.cpp:408] cont_1_lstm1_cont_slice_0_split -> cont_1_lstm1_cont_slice_0_split_1
I1119 19:24:53.647203 14011 net.cpp:150] Setting up cont_1_lstm1_cont_slice_0_split
I1119 19:24:53.647212 14011 net.cpp:157] Top shape: 1 128 (128)
I1119 19:24:53.647217 14011 net.cpp:157] Top shape: 1 128 (128)
I1119 19:24:53.647220 14011 net.cpp:165] Memory required for data: 562176
I1119 19:24:53.647224 14011 layer_factory.hpp:77] Creating layer cont_2_lstm1_cont_slice_1_split
I1119 19:24:53.647229 14011 net.cpp:100] Creating Layer cont_2_lstm1_cont_slice_1_split
I1119 19:24:53.647234 14011 net.cpp:434] cont_2_lstm1_cont_slice_1_split <- cont_2
I1119 19:24:53.647239 14011 net.cpp:408] cont_2_lstm1_cont_slice_1_split -> cont_2_lstm1_cont_slice_1_split_0
I1119 19:24:53.647248 14011 net.cpp:408] cont_2_lstm1_cont_slice_1_split -> cont_2_lstm1_cont_slice_1_split_1
I1119 19:24:53.647272 14011 net.cpp:150] Setting up cont_2_lstm1_cont_slice_1_split
I1119 19:24:53.647280 14011 net.cpp:157] Top shape: 1 128 (128)
I1119 19:24:53.647285 14011 net.cpp:157] Top shape: 1 128 (128)
I1119 19:24:53.647289 14011 net.cpp:165] Memory required for data: 563200
I1119 19:24:53.647292 14011 layer_factory.hpp:77] Creating layer cont_3_lstm1_cont_slice_2_split
I1119 19:24:53.647298 14011 net.cpp:100] Creating Layer cont_3_lstm1_cont_slice_2_split
I1119 19:24:53.647305 14011 net.cpp:434] cont_3_lstm1_cont_slice_2_split <- cont_3
I1119 19:24:53.647310 14011 net.cpp:408] cont_3_lstm1_cont_slice_2_split -> cont_3_lstm1_cont_slice_2_split_0
I1119 19:24:53.647317 14011 net.cpp:408] cont_3_lstm1_cont_slice_2_split -> cont_3_lstm1_cont_slice_2_split_1
I1119 19:24:53.647343 14011 net.cpp:150] Setting up cont_3_lstm1_cont_slice_2_split
I1119 19:24:53.647351 14011 net.cpp:157] Top shape: 1 128 (128)
I1119 19:24:53.647356 14011 net.cpp:157] Top shape: 1 128 (128)
I1119 19:24:53.647359 14011 net.cpp:165] Memory required for data: 564224
I1119 19:24:53.647363 14011 layer_factory.hpp:77] Creating layer cont_4_lstm1_cont_slice_3_split
I1119 19:24:53.647368 14011 net.cpp:100] Creating Layer cont_4_lstm1_cont_slice_3_split
I1119 19:24:53.647373 14011 net.cpp:434] cont_4_lstm1_cont_slice_3_split <- cont_4
I1119 19:24:53.647379 14011 net.cpp:408] cont_4_lstm1_cont_slice_3_split -> cont_4_lstm1_cont_slice_3_split_0
I1119 19:24:53.647387 14011 net.cpp:408] cont_4_lstm1_cont_slice_3_split -> cont_4_lstm1_cont_slice_3_split_1
I1119 19:24:53.647421 14011 net.cpp:150] Setting up cont_4_lstm1_cont_slice_3_split
I1119 19:24:53.647429 14011 net.cpp:157] Top shape: 1 128 (128)
I1119 19:24:53.647434 14011 net.cpp:157] Top shape: 1 128 (128)
I1119 19:24:53.647439 14011 net.cpp:165] Memory required for data: 565248
I1119 19:24:53.647442 14011 layer_factory.hpp:77] Creating layer cont_5_lstm1_cont_slice_4_split
I1119 19:24:53.647447 14011 net.cpp:100] Creating Layer cont_5_lstm1_cont_slice_4_split
I1119 19:24:53.647451 14011 net.cpp:434] cont_5_lstm1_cont_slice_4_split <- cont_5
I1119 19:24:53.647459 14011 net.cpp:408] cont_5_lstm1_cont_slice_4_split -> cont_5_lstm1_cont_slice_4_split_0
I1119 19:24:53.647466 14011 net.cpp:408] cont_5_lstm1_cont_slice_4_split -> cont_5_lstm1_cont_slice_4_split_1
I1119 19:24:53.647491 14011 net.cpp:150] Setting up cont_5_lstm1_cont_slice_4_split
I1119 19:24:53.647500 14011 net.cpp:157] Top shape: 1 128 (128)
I1119 19:24:53.647505 14011 net.cpp:157] Top shape: 1 128 (128)
I1119 19:24:53.647507 14011 net.cpp:165] Memory required for data: 566272
I1119 19:24:53.647511 14011 layer_factory.hpp:77] Creating layer cont_6_lstm1_cont_slice_5_split
I1119 19:24:53.647517 14011 net.cpp:100] Creating Layer cont_6_lstm1_cont_slice_5_split
I1119 19:24:53.647521 14011 net.cpp:434] cont_6_lstm1_cont_slice_5_split <- cont_6
I1119 19:24:53.647527 14011 net.cpp:408] cont_6_lstm1_cont_slice_5_split -> cont_6_lstm1_cont_slice_5_split_0
I1119 19:24:53.647534 14011 net.cpp:408] cont_6_lstm1_cont_slice_5_split -> cont_6_lstm1_cont_slice_5_split_1
I1119 19:24:53.647560 14011 net.cpp:150] Setting up cont_6_lstm1_cont_slice_5_split
I1119 19:24:53.647568 14011 net.cpp:157] Top shape: 1 128 (128)
I1119 19:24:53.647572 14011 net.cpp:157] Top shape: 1 128 (128)
I1119 19:24:53.647577 14011 net.cpp:165] Memory required for data: 567296
I1119 19:24:53.647580 14011 layer_factory.hpp:77] Creating layer cont_7_lstm1_cont_slice_6_split
I1119 19:24:53.647585 14011 net.cpp:100] Creating Layer cont_7_lstm1_cont_slice_6_split
I1119 19:24:53.647589 14011 net.cpp:434] cont_7_lstm1_cont_slice_6_split <- cont_7
I1119 19:24:53.647595 14011 net.cpp:408] cont_7_lstm1_cont_slice_6_split -> cont_7_lstm1_cont_slice_6_split_0
I1119 19:24:53.647601 14011 net.cpp:408] cont_7_lstm1_cont_slice_6_split -> cont_7_lstm1_cont_slice_6_split_1
I1119 19:24:53.647629 14011 net.cpp:150] Setting up cont_7_lstm1_cont_slice_6_split
I1119 19:24:53.647648 14011 net.cpp:157] Top shape: 1 128 (128)
I1119 19:24:53.647653 14011 net.cpp:157] Top shape: 1 128 (128)
I1119 19:24:53.647657 14011 net.cpp:165] Memory required for data: 568320
I1119 19:24:53.647661 14011 layer_factory.hpp:77] Creating layer cont_8_lstm1_cont_slice_7_split
I1119 19:24:53.647666 14011 net.cpp:100] Creating Layer cont_8_lstm1_cont_slice_7_split
I1119 19:24:53.647670 14011 net.cpp:434] cont_8_lstm1_cont_slice_7_split <- cont_8
I1119 19:24:53.647676 14011 net.cpp:408] cont_8_lstm1_cont_slice_7_split -> cont_8_lstm1_cont_slice_7_split_0
I1119 19:24:53.647683 14011 net.cpp:408] cont_8_lstm1_cont_slice_7_split -> cont_8_lstm1_cont_slice_7_split_1
I1119 19:24:53.647711 14011 net.cpp:150] Setting up cont_8_lstm1_cont_slice_7_split
I1119 19:24:53.647718 14011 net.cpp:157] Top shape: 1 128 (128)
I1119 19:24:53.647723 14011 net.cpp:157] Top shape: 1 128 (128)
I1119 19:24:53.647727 14011 net.cpp:165] Memory required for data: 569344
I1119 19:24:53.647730 14011 layer_factory.hpp:77] Creating layer cont_9_lstm1_cont_slice_8_split
I1119 19:24:53.647737 14011 net.cpp:100] Creating Layer cont_9_lstm1_cont_slice_8_split
I1119 19:24:53.647740 14011 net.cpp:434] cont_9_lstm1_cont_slice_8_split <- cont_9
I1119 19:24:53.647747 14011 net.cpp:408] cont_9_lstm1_cont_slice_8_split -> cont_9_lstm1_cont_slice_8_split_0
I1119 19:24:53.647753 14011 net.cpp:408] cont_9_lstm1_cont_slice_8_split -> cont_9_lstm1_cont_slice_8_split_1
I1119 19:24:53.647778 14011 net.cpp:150] Setting up cont_9_lstm1_cont_slice_8_split
I1119 19:24:53.647786 14011 net.cpp:157] Top shape: 1 128 (128)
I1119 19:24:53.647791 14011 net.cpp:157] Top shape: 1 128 (128)
I1119 19:24:53.647794 14011 net.cpp:165] Memory required for data: 570368
I1119 19:24:53.647799 14011 layer_factory.hpp:77] Creating layer cont_10_lstm1_cont_slice_9_split
I1119 19:24:53.647804 14011 net.cpp:100] Creating Layer cont_10_lstm1_cont_slice_9_split
I1119 19:24:53.647809 14011 net.cpp:434] cont_10_lstm1_cont_slice_9_split <- cont_10
I1119 19:24:53.647814 14011 net.cpp:408] cont_10_lstm1_cont_slice_9_split -> cont_10_lstm1_cont_slice_9_split_0
I1119 19:24:53.647821 14011 net.cpp:408] cont_10_lstm1_cont_slice_9_split -> cont_10_lstm1_cont_slice_9_split_1
I1119 19:24:53.647855 14011 net.cpp:150] Setting up cont_10_lstm1_cont_slice_9_split
I1119 19:24:53.647863 14011 net.cpp:157] Top shape: 1 128 (128)
I1119 19:24:53.647867 14011 net.cpp:157] Top shape: 1 128 (128)
I1119 19:24:53.647871 14011 net.cpp:165] Memory required for data: 571392
I1119 19:24:53.647876 14011 layer_factory.hpp:77] Creating layer cont_11_lstm1_cont_slice_10_split
I1119 19:24:53.647886 14011 net.cpp:100] Creating Layer cont_11_lstm1_cont_slice_10_split
I1119 19:24:53.647892 14011 net.cpp:434] cont_11_lstm1_cont_slice_10_split <- cont_11
I1119 19:24:53.647899 14011 net.cpp:408] cont_11_lstm1_cont_slice_10_split -> cont_11_lstm1_cont_slice_10_split_0
I1119 19:24:53.647907 14011 net.cpp:408] cont_11_lstm1_cont_slice_10_split -> cont_11_lstm1_cont_slice_10_split_1
I1119 19:24:53.647931 14011 net.cpp:150] Setting up cont_11_lstm1_cont_slice_10_split
I1119 19:24:53.647939 14011 net.cpp:157] Top shape: 1 128 (128)
I1119 19:24:53.647944 14011 net.cpp:157] Top shape: 1 128 (128)
I1119 19:24:53.647948 14011 net.cpp:165] Memory required for data: 572416
I1119 19:24:53.647951 14011 layer_factory.hpp:77] Creating layer cont_12_lstm1_cont_slice_11_split
I1119 19:24:53.647958 14011 net.cpp:100] Creating Layer cont_12_lstm1_cont_slice_11_split
I1119 19:24:53.647961 14011 net.cpp:434] cont_12_lstm1_cont_slice_11_split <- cont_12
I1119 19:24:53.647967 14011 net.cpp:408] cont_12_lstm1_cont_slice_11_split -> cont_12_lstm1_cont_slice_11_split_0
I1119 19:24:53.647974 14011 net.cpp:408] cont_12_lstm1_cont_slice_11_split -> cont_12_lstm1_cont_slice_11_split_1
I1119 19:24:53.648000 14011 net.cpp:150] Setting up cont_12_lstm1_cont_slice_11_split
I1119 19:24:53.648007 14011 net.cpp:157] Top shape: 1 128 (128)
I1119 19:24:53.648012 14011 net.cpp:157] Top shape: 1 128 (128)
I1119 19:24:53.648015 14011 net.cpp:165] Memory required for data: 573440
I1119 19:24:53.648020 14011 layer_factory.hpp:77] Creating layer cont_13_lstm1_cont_slice_12_split
I1119 19:24:53.648025 14011 net.cpp:100] Creating Layer cont_13_lstm1_cont_slice_12_split
I1119 19:24:53.648030 14011 net.cpp:434] cont_13_lstm1_cont_slice_12_split <- cont_13
I1119 19:24:53.648036 14011 net.cpp:408] cont_13_lstm1_cont_slice_12_split -> cont_13_lstm1_cont_slice_12_split_0
I1119 19:24:53.648043 14011 net.cpp:408] cont_13_lstm1_cont_slice_12_split -> cont_13_lstm1_cont_slice_12_split_1
I1119 19:24:53.648068 14011 net.cpp:150] Setting up cont_13_lstm1_cont_slice_12_split
I1119 19:24:53.648077 14011 net.cpp:157] Top shape: 1 128 (128)
I1119 19:24:53.648082 14011 net.cpp:157] Top shape: 1 128 (128)
I1119 19:24:53.648084 14011 net.cpp:165] Memory required for data: 574464
I1119 19:24:53.648088 14011 layer_factory.hpp:77] Creating layer cont_14_lstm1_cont_slice_13_split
I1119 19:24:53.648094 14011 net.cpp:100] Creating Layer cont_14_lstm1_cont_slice_13_split
I1119 19:24:53.648100 14011 net.cpp:434] cont_14_lstm1_cont_slice_13_split <- cont_14
I1119 19:24:53.648105 14011 net.cpp:408] cont_14_lstm1_cont_slice_13_split -> cont_14_lstm1_cont_slice_13_split_0
I1119 19:24:53.648113 14011 net.cpp:408] cont_14_lstm1_cont_slice_13_split -> cont_14_lstm1_cont_slice_13_split_1
I1119 19:24:53.648138 14011 net.cpp:150] Setting up cont_14_lstm1_cont_slice_13_split
I1119 19:24:53.648145 14011 net.cpp:157] Top shape: 1 128 (128)
I1119 19:24:53.648150 14011 net.cpp:157] Top shape: 1 128 (128)
I1119 19:24:53.648154 14011 net.cpp:165] Memory required for data: 575488
I1119 19:24:53.648157 14011 layer_factory.hpp:77] Creating layer cont_15_lstm1_cont_slice_14_split
I1119 19:24:53.648164 14011 net.cpp:100] Creating Layer cont_15_lstm1_cont_slice_14_split
I1119 19:24:53.648167 14011 net.cpp:434] cont_15_lstm1_cont_slice_14_split <- cont_15
I1119 19:24:53.648172 14011 net.cpp:408] cont_15_lstm1_cont_slice_14_split -> cont_15_lstm1_cont_slice_14_split_0
I1119 19:24:53.648180 14011 net.cpp:408] cont_15_lstm1_cont_slice_14_split -> cont_15_lstm1_cont_slice_14_split_1
I1119 19:24:53.648205 14011 net.cpp:150] Setting up cont_15_lstm1_cont_slice_14_split
I1119 19:24:53.648211 14011 net.cpp:157] Top shape: 1 128 (128)
I1119 19:24:53.648216 14011 net.cpp:157] Top shape: 1 128 (128)
I1119 19:24:53.648221 14011 net.cpp:165] Memory required for data: 576512
I1119 19:24:53.648223 14011 layer_factory.hpp:77] Creating layer cont_16_lstm1_cont_slice_15_split
I1119 19:24:53.648228 14011 net.cpp:100] Creating Layer cont_16_lstm1_cont_slice_15_split
I1119 19:24:53.648233 14011 net.cpp:434] cont_16_lstm1_cont_slice_15_split <- cont_16
I1119 19:24:53.648238 14011 net.cpp:408] cont_16_lstm1_cont_slice_15_split -> cont_16_lstm1_cont_slice_15_split_0
I1119 19:24:53.648245 14011 net.cpp:408] cont_16_lstm1_cont_slice_15_split -> cont_16_lstm1_cont_slice_15_split_1
I1119 19:24:53.648275 14011 net.cpp:150] Setting up cont_16_lstm1_cont_slice_15_split
I1119 19:24:53.648283 14011 net.cpp:157] Top shape: 1 128 (128)
I1119 19:24:53.648288 14011 net.cpp:157] Top shape: 1 128 (128)
I1119 19:24:53.648293 14011 net.cpp:165] Memory required for data: 577536
I1119 19:24:53.648296 14011 layer_factory.hpp:77] Creating layer cont_17_lstm1_cont_slice_16_split
I1119 19:24:53.648301 14011 net.cpp:100] Creating Layer cont_17_lstm1_cont_slice_16_split
I1119 19:24:53.648305 14011 net.cpp:434] cont_17_lstm1_cont_slice_16_split <- cont_17
I1119 19:24:53.648311 14011 net.cpp:408] cont_17_lstm1_cont_slice_16_split -> cont_17_lstm1_cont_slice_16_split_0
I1119 19:24:53.648321 14011 net.cpp:408] cont_17_lstm1_cont_slice_16_split -> cont_17_lstm1_cont_slice_16_split_1
I1119 19:24:53.648347 14011 net.cpp:150] Setting up cont_17_lstm1_cont_slice_16_split
I1119 19:24:53.648355 14011 net.cpp:157] Top shape: 1 128 (128)
I1119 19:24:53.648360 14011 net.cpp:157] Top shape: 1 128 (128)
I1119 19:24:53.648363 14011 net.cpp:165] Memory required for data: 578560
I1119 19:24:53.648367 14011 layer_factory.hpp:77] Creating layer cont_18_lstm1_cont_slice_17_split
I1119 19:24:53.648372 14011 net.cpp:100] Creating Layer cont_18_lstm1_cont_slice_17_split
I1119 19:24:53.648377 14011 net.cpp:434] cont_18_lstm1_cont_slice_17_split <- cont_18
I1119 19:24:53.648383 14011 net.cpp:408] cont_18_lstm1_cont_slice_17_split -> cont_18_lstm1_cont_slice_17_split_0
I1119 19:24:53.648391 14011 net.cpp:408] cont_18_lstm1_cont_slice_17_split -> cont_18_lstm1_cont_slice_17_split_1
I1119 19:24:53.648416 14011 net.cpp:150] Setting up cont_18_lstm1_cont_slice_17_split
I1119 19:24:53.648423 14011 net.cpp:157] Top shape: 1 128 (128)
I1119 19:24:53.648428 14011 net.cpp:157] Top shape: 1 128 (128)
I1119 19:24:53.648432 14011 net.cpp:165] Memory required for data: 579584
I1119 19:24:53.648435 14011 layer_factory.hpp:77] Creating layer cont_19_lstm1_cont_slice_18_split
I1119 19:24:53.648440 14011 net.cpp:100] Creating Layer cont_19_lstm1_cont_slice_18_split
I1119 19:24:53.648445 14011 net.cpp:434] cont_19_lstm1_cont_slice_18_split <- cont_19
I1119 19:24:53.648452 14011 net.cpp:408] cont_19_lstm1_cont_slice_18_split -> cont_19_lstm1_cont_slice_18_split_0
I1119 19:24:53.648458 14011 net.cpp:408] cont_19_lstm1_cont_slice_18_split -> cont_19_lstm1_cont_slice_18_split_1
I1119 19:24:53.648484 14011 net.cpp:150] Setting up cont_19_lstm1_cont_slice_18_split
I1119 19:24:53.648492 14011 net.cpp:157] Top shape: 1 128 (128)
I1119 19:24:53.648496 14011 net.cpp:157] Top shape: 1 128 (128)
I1119 19:24:53.648500 14011 net.cpp:165] Memory required for data: 580608
I1119 19:24:53.648504 14011 layer_factory.hpp:77] Creating layer cont_20_lstm1_cont_slice_19_split
I1119 19:24:53.648510 14011 net.cpp:100] Creating Layer cont_20_lstm1_cont_slice_19_split
I1119 19:24:53.648516 14011 net.cpp:434] cont_20_lstm1_cont_slice_19_split <- cont_20
I1119 19:24:53.648521 14011 net.cpp:408] cont_20_lstm1_cont_slice_19_split -> cont_20_lstm1_cont_slice_19_split_0
I1119 19:24:53.648528 14011 net.cpp:408] cont_20_lstm1_cont_slice_19_split -> cont_20_lstm1_cont_slice_19_split_1
I1119 19:24:53.648553 14011 net.cpp:150] Setting up cont_20_lstm1_cont_slice_19_split
I1119 19:24:53.648561 14011 net.cpp:157] Top shape: 1 128 (128)
I1119 19:24:53.648566 14011 net.cpp:157] Top shape: 1 128 (128)
I1119 19:24:53.648569 14011 net.cpp:165] Memory required for data: 581632
I1119 19:24:53.648573 14011 layer_factory.hpp:77] Creating layer cont_21_lstm1_cont_slice_20_split
I1119 19:24:53.648578 14011 net.cpp:100] Creating Layer cont_21_lstm1_cont_slice_20_split
I1119 19:24:53.648583 14011 net.cpp:434] cont_21_lstm1_cont_slice_20_split <- cont_21
I1119 19:24:53.648589 14011 net.cpp:408] cont_21_lstm1_cont_slice_20_split -> cont_21_lstm1_cont_slice_20_split_0
I1119 19:24:53.648597 14011 net.cpp:408] cont_21_lstm1_cont_slice_20_split -> cont_21_lstm1_cont_slice_20_split_1
I1119 19:24:53.648622 14011 net.cpp:150] Setting up cont_21_lstm1_cont_slice_20_split
I1119 19:24:53.648629 14011 net.cpp:157] Top shape: 1 128 (128)
I1119 19:24:53.648634 14011 net.cpp:157] Top shape: 1 128 (128)
I1119 19:24:53.648638 14011 net.cpp:165] Memory required for data: 582656
I1119 19:24:53.648643 14011 layer_factory.hpp:77] Creating layer cont_22_lstm1_cont_slice_21_split
I1119 19:24:53.648648 14011 net.cpp:100] Creating Layer cont_22_lstm1_cont_slice_21_split
I1119 19:24:53.648653 14011 net.cpp:434] cont_22_lstm1_cont_slice_21_split <- cont_22
I1119 19:24:53.648658 14011 net.cpp:408] cont_22_lstm1_cont_slice_21_split -> cont_22_lstm1_cont_slice_21_split_0
I1119 19:24:53.648665 14011 net.cpp:408] cont_22_lstm1_cont_slice_21_split -> cont_22_lstm1_cont_slice_21_split_1
I1119 19:24:53.648691 14011 net.cpp:150] Setting up cont_22_lstm1_cont_slice_21_split
I1119 19:24:53.648699 14011 net.cpp:157] Top shape: 1 128 (128)
I1119 19:24:53.648703 14011 net.cpp:157] Top shape: 1 128 (128)
I1119 19:24:53.648707 14011 net.cpp:165] Memory required for data: 583680
I1119 19:24:53.648710 14011 layer_factory.hpp:77] Creating layer cont_23_lstm1_cont_slice_22_split
I1119 19:24:53.648716 14011 net.cpp:100] Creating Layer cont_23_lstm1_cont_slice_22_split
I1119 19:24:53.648721 14011 net.cpp:434] cont_23_lstm1_cont_slice_22_split <- cont_23
I1119 19:24:53.648727 14011 net.cpp:408] cont_23_lstm1_cont_slice_22_split -> cont_23_lstm1_cont_slice_22_split_0
I1119 19:24:53.648735 14011 net.cpp:408] cont_23_lstm1_cont_slice_22_split -> cont_23_lstm1_cont_slice_22_split_1
I1119 19:24:53.648768 14011 net.cpp:150] Setting up cont_23_lstm1_cont_slice_22_split
I1119 19:24:53.648777 14011 net.cpp:157] Top shape: 1 128 (128)
I1119 19:24:53.648782 14011 net.cpp:157] Top shape: 1 128 (128)
I1119 19:24:53.648784 14011 net.cpp:165] Memory required for data: 584704
I1119 19:24:53.648788 14011 layer_factory.hpp:77] Creating layer cont_24_lstm1_cont_slice_23_split
I1119 19:24:53.648793 14011 net.cpp:100] Creating Layer cont_24_lstm1_cont_slice_23_split
I1119 19:24:53.648799 14011 net.cpp:434] cont_24_lstm1_cont_slice_23_split <- cont_24
I1119 19:24:53.648805 14011 net.cpp:408] cont_24_lstm1_cont_slice_23_split -> cont_24_lstm1_cont_slice_23_split_0
I1119 19:24:53.648813 14011 net.cpp:408] cont_24_lstm1_cont_slice_23_split -> cont_24_lstm1_cont_slice_23_split_1
I1119 19:24:53.648838 14011 net.cpp:150] Setting up cont_24_lstm1_cont_slice_23_split
I1119 19:24:53.648845 14011 net.cpp:157] Top shape: 1 128 (128)
I1119 19:24:53.648850 14011 net.cpp:157] Top shape: 1 128 (128)
I1119 19:24:53.648854 14011 net.cpp:165] Memory required for data: 585728
I1119 19:24:53.648857 14011 layer_factory.hpp:77] Creating layer cont_25_lstm1_cont_slice_24_split
I1119 19:24:53.648869 14011 net.cpp:100] Creating Layer cont_25_lstm1_cont_slice_24_split
I1119 19:24:53.648875 14011 net.cpp:434] cont_25_lstm1_cont_slice_24_split <- cont_25
I1119 19:24:53.648881 14011 net.cpp:408] cont_25_lstm1_cont_slice_24_split -> cont_25_lstm1_cont_slice_24_split_0
I1119 19:24:53.648888 14011 net.cpp:408] cont_25_lstm1_cont_slice_24_split -> cont_25_lstm1_cont_slice_24_split_1
I1119 19:24:53.648919 14011 net.cpp:150] Setting up cont_25_lstm1_cont_slice_24_split
I1119 19:24:53.648927 14011 net.cpp:157] Top shape: 1 128 (128)
I1119 19:24:53.648932 14011 net.cpp:157] Top shape: 1 128 (128)
I1119 19:24:53.648936 14011 net.cpp:165] Memory required for data: 586752
I1119 19:24:53.648941 14011 layer_factory.hpp:77] Creating layer cont_26_lstm1_cont_slice_25_split
I1119 19:24:53.648946 14011 net.cpp:100] Creating Layer cont_26_lstm1_cont_slice_25_split
I1119 19:24:53.648950 14011 net.cpp:434] cont_26_lstm1_cont_slice_25_split <- cont_26
I1119 19:24:53.648957 14011 net.cpp:408] cont_26_lstm1_cont_slice_25_split -> cont_26_lstm1_cont_slice_25_split_0
I1119 19:24:53.648963 14011 net.cpp:408] cont_26_lstm1_cont_slice_25_split -> cont_26_lstm1_cont_slice_25_split_1
I1119 19:24:53.648989 14011 net.cpp:150] Setting up cont_26_lstm1_cont_slice_25_split
I1119 19:24:53.648998 14011 net.cpp:157] Top shape: 1 128 (128)
I1119 19:24:53.649003 14011 net.cpp:157] Top shape: 1 128 (128)
I1119 19:24:53.649005 14011 net.cpp:165] Memory required for data: 587776
I1119 19:24:53.649009 14011 layer_factory.hpp:77] Creating layer cont_27_lstm1_cont_slice_26_split
I1119 19:24:53.649014 14011 net.cpp:100] Creating Layer cont_27_lstm1_cont_slice_26_split
I1119 19:24:53.649019 14011 net.cpp:434] cont_27_lstm1_cont_slice_26_split <- cont_27
I1119 19:24:53.649024 14011 net.cpp:408] cont_27_lstm1_cont_slice_26_split -> cont_27_lstm1_cont_slice_26_split_0
I1119 19:24:53.649030 14011 net.cpp:408] cont_27_lstm1_cont_slice_26_split -> cont_27_lstm1_cont_slice_26_split_1
I1119 19:24:53.649055 14011 net.cpp:150] Setting up cont_27_lstm1_cont_slice_26_split
I1119 19:24:53.649063 14011 net.cpp:157] Top shape: 1 128 (128)
I1119 19:24:53.649068 14011 net.cpp:157] Top shape: 1 128 (128)
I1119 19:24:53.649071 14011 net.cpp:165] Memory required for data: 588800
I1119 19:24:53.649075 14011 layer_factory.hpp:77] Creating layer cont_28_lstm1_cont_slice_27_split
I1119 19:24:53.649080 14011 net.cpp:100] Creating Layer cont_28_lstm1_cont_slice_27_split
I1119 19:24:53.649085 14011 net.cpp:434] cont_28_lstm1_cont_slice_27_split <- cont_28
I1119 19:24:53.649091 14011 net.cpp:408] cont_28_lstm1_cont_slice_27_split -> cont_28_lstm1_cont_slice_27_split_0
I1119 19:24:53.649097 14011 net.cpp:408] cont_28_lstm1_cont_slice_27_split -> cont_28_lstm1_cont_slice_27_split_1
I1119 19:24:53.649122 14011 net.cpp:150] Setting up cont_28_lstm1_cont_slice_27_split
I1119 19:24:53.649130 14011 net.cpp:157] Top shape: 1 128 (128)
I1119 19:24:53.649135 14011 net.cpp:157] Top shape: 1 128 (128)
I1119 19:24:53.649138 14011 net.cpp:165] Memory required for data: 589824
I1119 19:24:53.649142 14011 layer_factory.hpp:77] Creating layer lstm1_x_transform
I1119 19:24:53.649150 14011 net.cpp:100] Creating Layer lstm1_x_transform
I1119 19:24:53.649155 14011 net.cpp:434] lstm1_x_transform <- x
I1119 19:24:53.649163 14011 net.cpp:408] lstm1_x_transform -> W_xc_x
I1119 19:24:53.651060 14011 net.cpp:150] Setting up lstm1_x_transform
I1119 19:24:53.651084 14011 net.cpp:157] Top shape: 28 128 512 (1835008)
I1119 19:24:53.651088 14011 net.cpp:165] Memory required for data: 7929856
I1119 19:24:53.651103 14011 layer_factory.hpp:77] Creating layer lstm1_W_xc_x_slice
I1119 19:24:53.651129 14011 net.cpp:100] Creating Layer lstm1_W_xc_x_slice
I1119 19:24:53.651136 14011 net.cpp:434] lstm1_W_xc_x_slice <- W_xc_x
I1119 19:24:53.651144 14011 net.cpp:408] lstm1_W_xc_x_slice -> W_xc_x_1
I1119 19:24:53.651156 14011 net.cpp:408] lstm1_W_xc_x_slice -> W_xc_x_2
…
I1119 19:24:53.651329 14011 net.cpp:408] lstm1_W_xc_x_slice -> W_xc_x_22
I1119 19:24:53.651336 14011 net.cpp:408] lstm1_W_xc_x_slice -> W_xc_x_23
I1119 19:24:53.651345 14011 net.cpp:408] lstm1_W_xc_x_slice -> W_xc_x_24
I1119 19:24:53.651358 14011 net.cpp:408] lstm1_W_xc_x_slice -> W_xc_x_25
I1119 19:24:53.651367 14011 net.cpp:408] lstm1_W_xc_x_slice -> W_xc_x_26
I1119 19:24:53.651376 14011 net.cpp:408] lstm1_W_xc_x_slice -> W_xc_x_27
I1119 19:24:53.651383 14011 net.cpp:408] lstm1_W_xc_x_slice -> W_xc_x_28
I1119 19:24:53.651644 14011 net.cpp:150] Setting up lstm1_W_xc_x_slice
I1119 19:24:53.651655 14011 net.cpp:157] Top shape: 1 128 512 (65536)
I1119 19:24:53.651661 14011 net.cpp:157] Top shape: 1 128 512 (65536)
I1119 19:24:53.651666 14011 net.cpp:157] Top shape: 1 128 512 (65536)
I1119 19:24:53.651671 14011 net.cpp:157] Top shape: 1 128 512 (65536)
I1119 19:24:53.651676 14011 net.cpp:157] Top shape: 1 128 512 (65536)
I1119 19:24:53.651682 14011 net.cpp:157] Top shape: 1 128 512 (65536)
I1119 19:24:53.651687 14011 net.cpp:157] Top shape: 1 128 512 (65536)
I1119 19:24:53.651693 14011 net.cpp:157] Top shape: 1 128 512 (65536)
I1119 19:24:53.651697 14011 net.cpp:157] Top shape: 1 128 512 (65536)
I1119 19:24:53.651703 14011 net.cpp:157] Top shape: 1 128 512 (65536)
I1119 19:24:53.651708 14011 net.cpp:157] Top shape: 1 128 512 (65536)
I1119 19:24:53.651713 14011 net.cpp:157] Top shape: 1 128 512 (65536)
I1119 19:24:53.651718 14011 net.cpp:157] Top shape: 1 128 512 (65536)
I1119 19:24:53.651724 14011 net.cpp:157] Top shape: 1 128 512 (65536)
I1119 19:24:53.651728 14011 net.cpp:157] Top shape: 1 128 512 (65536)
I1119 19:24:53.651734 14011 net.cpp:157] Top shape: 1 128 512 (65536)
I1119 19:24:53.651739 14011 net.cpp:157] Top shape: 1 128 512 (65536)
I1119 19:24:53.651744 14011 net.cpp:157] Top shape: 1 128 512 (65536)
I1119 19:24:53.651749 14011 net.cpp:157] Top shape: 1 128 512 (65536)
I1119 19:24:53.651756 14011 net.cpp:157] Top shape: 1 128 512 (65536)
I1119 19:24:53.651760 14011 net.cpp:157] Top shape: 1 128 512 (65536)
I1119 19:24:53.651765 14011 net.cpp:157] Top shape: 1 128 512 (65536)
I1119 19:24:53.651770 14011 net.cpp:157] Top shape: 1 128 512 (65536)
I1119 19:24:53.651775 14011 net.cpp:157] Top shape: 1 128 512 (65536)
I1119 19:24:53.651780 14011 net.cpp:157] Top shape: 1 128 512 (65536)
I1119 19:24:53.651787 14011 net.cpp:157] Top shape: 1 128 512 (65536)
I1119 19:24:53.651791 14011 net.cpp:157] Top shape: 1 128 512 (65536)
I1119 19:24:53.651796 14011 net.cpp:157] Top shape: 1 128 512 (65536)
I1119 19:24:53.651800 14011 net.cpp:165] Memory required for data: 15269888
I1119 19:24:53.651804 14011 layer_factory.hpp:77] Creating layer lstm1_h_conted_0
I1119 19:24:53.651813 14011 net.cpp:100] Creating Layer lstm1_h_conted_0
I1119 19:24:53.651818 14011 net.cpp:434] lstm1_h_conted_0 <- h_0
I1119 19:24:53.651824 14011 net.cpp:434] lstm1_h_conted_0 <- cont_1_lstm1_cont_slice_0_split_0
I1119 19:24:53.651831 14011 net.cpp:408] lstm1_h_conted_0 -> h_conted_0
I1119 19:24:53.651886 14011 net.cpp:150] Setting up lstm1_h_conted_0
I1119 19:24:53.651895 14011 net.cpp:157] Top shape: 1 128 128 (16384)
I1119 19:24:53.651898 14011 net.cpp:165] Memory required for data: 15335424
I1119 19:24:53.651902 14011 layer_factory.hpp:77] Creating layer lstm1_transform_1
I1119 19:24:53.651911 14011 net.cpp:100] Creating Layer lstm1_transform_1
I1119 19:24:53.651916 14011 net.cpp:434] lstm1_transform_1 <- h_conted_0
I1119 19:24:53.651922 14011 net.cpp:408] lstm1_transform_1 -> W_hc_h_0
I1119 19:24:53.653236 14011 net.cpp:150] Setting up lstm1_transform_1
I1119 19:24:53.653251 14011 net.cpp:157] Top shape: 1 128 512 (65536)
I1119 19:24:53.653255 14011 net.cpp:165] Memory required for data: 15597568
I1119 19:24:53.653264 14011 layer_factory.hpp:77] Creating layer lstm1_gate_input_1
I1119 19:24:53.653273 14011 net.cpp:100] Creating Layer lstm1_gate_input_1
I1119 19:24:53.653280 14011 net.cpp:434] lstm1_gate_input_1 <- W_hc_h_0
I1119 19:24:53.653285 14011 net.cpp:434] lstm1_gate_input_1 <- W_xc_x_1
I1119 19:24:53.653291 14011 net.cpp:408] lstm1_gate_input_1 -> gate_input_1
I1119 19:24:53.653316 14011 net.cpp:150] Setting up lstm1_gate_input_1
I1119 19:24:53.653323 14011 net.cpp:157] Top shape: 1 128 512 (65536)
I1119 19:24:53.653327 14011 net.cpp:165] Memory required for data: 15859712
I1119 19:24:53.653331 14011 layer_factory.hpp:77] Creating layer lstm1_unit_1
I1119 19:24:53.653338 14011 net.cpp:100] Creating Layer lstm1_unit_1
I1119 19:24:53.653343 14011 net.cpp:434] lstm1_unit_1 <- c_0
I1119 19:24:53.653349 14011 net.cpp:434] lstm1_unit_1 <- gate_input_1
I1119 19:24:53.653355 14011 net.cpp:434] lstm1_unit_1 <- cont_1_lstm1_cont_slice_0_split_1
I1119 19:24:53.653362 14011 net.cpp:408] lstm1_unit_1 -> c_1
I1119 19:24:53.653369 14011 net.cpp:408] lstm1_unit_1 -> h_1
I1119 19:24:53.653406 14011 net.cpp:150] Setting up lstm1_unit_1
I1119 19:24:53.653414 14011 net.cpp:157] Top shape: 1 128 128 (16384)
I1119 19:24:53.653419 14011 net.cpp:157] Top shape: 1 128 128 (16384)
I1119 19:24:53.653424 14011 net.cpp:165] Memory required for data: 15990784
I1119 19:24:53.653427 14011 layer_factory.hpp:77] Creating layer h_1_lstm1_unit_1_1_split
I1119 19:24:53.653434 14011 net.cpp:100] Creating Layer h_1_lstm1_unit_1_1_split
I1119 19:24:53.653439 14011 net.cpp:434] h_1_lstm1_unit_1_1_split <- h_1
I1119 19:24:53.653445 14011 net.cpp:408] h_1_lstm1_unit_1_1_split -> h_1_lstm1_unit_1_1_split_0
I1119 19:24:53.653452 14011 net.cpp:408] h_1_lstm1_unit_1_1_split -> h_1_lstm1_unit_1_1_split_1
I1119 19:24:53.653478 14011 net.cpp:150] Setting up h_1_lstm1_unit_1_1_split
I1119 19:24:53.653486 14011 net.cpp:157] Top shape: 1 128 128 (16384)
I1119 19:24:53.653489 14011 net.cpp:157] Top shape: 1 128 128 (16384)
I1119 19:24:53.653493 14011 net.cpp:165] Memory required for data: 16121856
I1119 19:24:53.653497 14011 layer_factory.hpp:77] Creating layer lstm1_h_conted_1
I1119 19:24:53.653503 14011 net.cpp:100] Creating Layer lstm1_h_conted_1
I1119 19:24:53.653509 14011 net.cpp:434] lstm1_h_conted_1 <- h_1_lstm1_unit_1_1_split_0
I1119 19:24:53.653514 14011 net.cpp:434] lstm1_h_conted_1 <- cont_2_lstm1_cont_slice_1_split_0
I1119 19:24:53.653520 14011 net.cpp:408] lstm1_h_conted_1 -> h_conted_1
I1119 19:24:53.653582 14011 net.cpp:150] Setting up lstm1_h_conted_1
I1119 19:24:53.653591 14011 net.cpp:157] Top shape: 1 128 128 (16384)
I1119 19:24:53.653595 14011 net.cpp:165] Memory required for data: 16187392
I1119 19:24:53.653599 14011 layer_factory.hpp:77] Creating layer lstm1_transform_2
I1119 19:24:53.653605 14011 net.cpp:100] Creating Layer lstm1_transform_2
I1119 19:24:53.653611 14011 net.cpp:434] lstm1_transform_2 <- h_conted_1
I1119 19:24:53.653617 14011 net.cpp:408] lstm1_transform_2 -> W_hc_h_1
I1119 19:24:53.654065 14011 net.cpp:150] Setting up lstm1_transform_2
I1119 19:24:53.654075 14011 net.cpp:157] Top shape: 1 128 512 (65536)
I1119 19:24:53.654079 14011 net.cpp:165] Memory required for data: 16449536
I1119 19:24:53.654084 14011 net.cpp:493] Sharing parameters 'W_hc' owned by layer 'lstm1_transform_1', param index 0
I1119 19:24:53.654090 14011 layer_factory.hpp:77] Creating layer lstm1_gate_input_2
I1119 19:24:53.654096 14011 net.cpp:100] Creating Layer lstm1_gate_input_2
I1119 19:24:53.654101 14011 net.cpp:434] lstm1_gate_input_2 <- W_hc_h_1
I1119 19:24:53.654108 14011 net.cpp:434] lstm1_gate_input_2 <- W_xc_x_2
I1119 19:24:53.654114 14011 net.cpp:408] lstm1_gate_input_2 -> gate_input_2
I1119 19:24:53.654134 14011 net.cpp:150] Setting up lstm1_gate_input_2
I1119 19:24:53.654142 14011 net.cpp:157] Top shape: 1 128 512 (65536)
I1119 19:24:53.654145 14011 net.cpp:165] Memory required for data: 16711680
I1119 19:24:53.654150 14011 layer_factory.hpp:77] Creating layer lstm1_unit_2
I1119 19:24:53.654155 14011 net.cpp:100] Creating Layer lstm1_unit_2
I1119 19:24:53.654160 14011 net.cpp:434] lstm1_unit_2 <- c_1
I1119 19:24:53.654165 14011 net.cpp:434] lstm1_unit_2 <- gate_input_2
I1119 19:24:53.654171 14011 net.cpp:434] lstm1_unit_2 <- cont_2_lstm1_cont_slice_1_split_1
I1119 19:24:53.654177 14011 net.cpp:408] lstm1_unit_2 -> c_2
I1119 19:24:53.654186 14011 net.cpp:408] lstm1_unit_2 -> h_2
I1119 19:24:53.654239 14011 net.cpp:150] Setting up lstm1_unit_2
I1119 19:24:53.654247 14011 net.cpp:157] Top shape: 1 128 128 (16384)
I1119 19:24:53.654253 14011 net.cpp:157] Top shape: 1 128 128 (16384)
I1119 19:24:53.654258 14011 net.cpp:165] Memory required for data: 16842752
I1119 19:24:53.654263 14011 layer_factory.hpp:77] Creating layer h_2_lstm1_unit_2_1_split
I1119 19:24:53.654268 14011 net.cpp:100] Creating Layer h_2_lstm1_unit_2_1_split
I1119 19:24:53.654273 14011 net.cpp:434] h_2_lstm1_unit_2_1_split <- h_2
I1119 19:24:53.654286 14011 net.cpp:408] h_2_lstm1_unit_2_1_split -> h_2_lstm1_unit_2_1_split_0
I1119 19:24:53.654294 14011 net.cpp:408] h_2_lstm1_unit_2_1_split -> h_2_lstm1_unit_2_1_split_1
I1119 19:24:53.654321 14011 net.cpp:150] Setting up h_2_lstm1_unit_2_1_split
I1119 19:24:53.654330 14011 net.cpp:157] Top shape: 1 128 128 (16384)
I1119 19:24:53.654335 14011 net.cpp:157] Top shape: 1 128 128 (16384)
I1119 19:24:53.654337 14011 net.cpp:165] Memory required for data: 16973824
I1119 19:24:53.654342 14011 layer_factory.hpp:77] Creating layer lstm1_h_conted_2
I1119 19:24:53.654350 14011 net.cpp:100] Creating Layer lstm1_h_conted_2
I1119 19:24:53.654355 14011 net.cpp:434] lstm1_h_conted_2 <- h_2_lstm1_unit_2_1_split_0
I1119 19:24:53.654359 14011 net.cpp:434] lstm1_h_conted_2 <- cont_3_lstm1_cont_slice_2_split_0
I1119 19:24:53.654366 14011 net.cpp:408] lstm1_h_conted_2 -> h_conted_2
I1119 19:24:53.654419 14011 net.cpp:150] Setting up lstm1_h_conted_2
I1119 19:24:53.654428 14011 net.cpp:157] Top shape: 1 128 128 (16384)
I1119 19:24:53.654431 14011 net.cpp:165] Memory required for data: 17039360
I1119 19:24:53.654435 14011 layer_factory.hpp:77] Creating layer lstm1_transform_3
I1119 19:24:53.654443 14011 net.cpp:100] Creating Layer lstm1_transform_3
I1119 19:24:53.654448 14011 net.cpp:434] lstm1_transform_3 <- h_conted_2
I1119 19:24:53.654453 14011 net.cpp:408] lstm1_transform_3 -> W_hc_h_2
I1119 19:24:53.654901 14011 net.cpp:150] Setting up lstm1_transform_3
I1119 19:24:53.654911 14011 net.cpp:157] Top shape: 1 128 512 (65536)
I1119 19:24:53.654916 14011 net.cpp:165] Memory required for data: 17301504
I1119 19:24:53.654922 14011 net.cpp:493] Sharing parameters 'W_hc' owned by layer 'lstm1_transform_1', param index 0
I1119 19:24:53.654927 14011 layer_factory.hpp:77] Creating layer lstm1_gate_input_3
I1119 19:24:53.654932 14011 net.cpp:100] Creating Layer lstm1_gate_input_3
I1119 19:24:53.654938 14011 net.cpp:434] lstm1_gate_input_3 <- W_hc_h_2
I1119 19:24:53.654943 14011 net.cpp:434] lstm1_gate_input_3 <- W_xc_x_3
I1119 19:24:53.654949 14011 net.cpp:408] lstm1_gate_input_3 -> gate_input_3
I1119 19:24:53.654970 14011 net.cpp:150] Setting up lstm1_gate_input_3
I1119 19:24:53.654978 14011 net.cpp:157] Top shape: 1 128 512 (65536)
I1119 19:24:53.654983 14011 net.cpp:165] Memory required for data: 17563648
I1119 19:24:53.654986 14011 layer_factory.hpp:77] Creating layer lstm1_unit_3
I1119 19:24:53.654991 14011 net.cpp:100] Creating Layer lstm1_unit_3
I1119 19:24:53.654996 14011 net.cpp:434] lstm1_unit_3 <- c_2
I1119 19:24:53.655002 14011 net.cpp:434] lstm1_unit_3 <- gate_input_3
I1119 19:24:53.655007 14011 net.cpp:434] lstm1_unit_3 <- cont_3_lstm1_cont_slice_2_split_1
I1119 19:24:53.655014 14011 net.cpp:408] lstm1_unit_3 -> c_3
I1119 19:24:53.655019 14011 net.cpp:408] lstm1_unit_3 -> h_3
I1119 19:24:53.655055 14011 net.cpp:150] Setting up lstm1_unit_3
I1119 19:24:53.655062 14011 net.cpp:157] Top shape: 1 128 128 (16384)
I1119 19:24:53.655067 14011 net.cpp:157] Top shape: 1 128 128 (16384)
I1119 19:24:53.655071 14011 net.cpp:165] Memory required for data: 17694720
I1119 19:24:53.655074 14011 layer_factory.hpp:77] Creating layer h_3_lstm1_unit_3_1_split
I1119 19:24:53.655081 14011 net.cpp:100] Creating Layer h_3_lstm1_unit_3_1_split
I1119 19:24:53.655086 14011 net.cpp:434] h_3_lstm1_unit_3_1_split <- h_3
I1119 19:24:53.655092 14011 net.cpp:408] h_3_lstm1_unit_3_1_split -> h_3_lstm1_unit_3_1_split_0
I1119 19:24:53.655097 14011 net.cpp:408] h_3_lstm1_unit_3_1_split -> h_3_lstm1_unit_3_1_split_1
I1119 19:24:53.655122 14011 net.cpp:150] Setting up h_3_lstm1_unit_3_1_split
I1119 19:24:53.655130 14011 net.cpp:157] Top shape: 1 128 128 (16384)
I1119 19:24:53.655135 14011 net.cpp:157] Top shape: 1 128 128 (16384)
I1119 19:24:53.655140 14011 net.cpp:165] Memory required for data: 17825792
I1119 19:24:53.655144 14011 layer_factory.hpp:77] Creating layer lstm1_h_conted_3
I1119 19:24:53.655150 14011 net.cpp:100] Creating Layer lstm1_h_conted_3
I1119 19:24:53.655155 14011 net.cpp:434] lstm1_h_conted_3 <- h_3_lstm1_unit_3_1_split_0
I1119 19:24:53.655160 14011 net.cpp:434] lstm1_h_conted_3 <- cont_4_lstm1_cont_slice_3_split_0
I1119 19:24:53.655167 14011 net.cpp:408] lstm1_h_conted_3 -> h_conted_3
I1119 19:24:53.655220 14011 net.cpp:150] Setting up lstm1_h_conted_3
I1119 19:24:53.655230 14011 net.cpp:157] Top shape: 1 128 128 (16384)
I1119 19:24:53.655233 14011 net.cpp:165] Memory required for data: 17891328
I1119 19:24:53.655237 14011 layer_factory.hpp:77] Creating layer lstm1_transform_4
I1119 19:24:53.655243 14011 net.cpp:100] Creating Layer lstm1_transform_4
I1119 19:24:53.655248 14011 net.cpp:434] lstm1_transform_4 <- h_conted_3
I1119 19:24:53.655254 14011 net.cpp:408] lstm1_transform_4 -> W_hc_h_3
I1119 19:24:53.656852 14011 net.cpp:150] Setting up lstm1_transform_4
I1119 19:24:53.656865 14011 net.cpp:157] Top shape: 1 128 512 (65536)
I1119 19:24:53.656869 14011 net.cpp:165] Memory required for data: 18153472
I1119 19:24:53.656874 14011 net.cpp:493] Sharing parameters 'W_hc' owned by layer 'lstm1_transform_1', param index 0
I1119 19:24:53.656880 14011 layer_factory.hpp:77] Creating layer lstm1_gate_input_4
I1119 19:24:53.656888 14011 net.cpp:100] Creating Layer lstm1_gate_input_4
I1119 19:24:53.656893 14011 net.cpp:434] lstm1_gate_input_4 <- W_hc_h_3
I1119 19:24:53.656899 14011 net.cpp:434] lstm1_gate_input_4 <- W_xc_x_4
I1119 19:24:53.656906 14011 net.cpp:408] lstm1_gate_input_4 -> gate_input_4
I1119 19:24:53.656931 14011 net.cpp:150] Setting up lstm1_gate_input_4
I1119 19:24:53.656940 14011 net.cpp:157] Top shape: 1 128 512 (65536)
I1119 19:24:53.656944 14011 net.cpp:165] Memory required for data: 18415616
I1119 19:24:53.656947 14011 layer_factory.hpp:77] Creating layer lstm1_unit_4
I1119 19:24:53.656955 14011 net.cpp:100] Creating Layer lstm1_unit_4
I1119 19:24:53.656961 14011 net.cpp:434] lstm1_unit_4 <- c_3
I1119 19:24:53.656966 14011 net.cpp:434] lstm1_unit_4 <- gate_input_4
I1119 19:24:53.656972 14011 net.cpp:434] lstm1_unit_4 <- cont_4_lstm1_cont_slice_3_split_1
I1119 19:24:53.656978 14011 net.cpp:408] lstm1_unit_4 -> c_4
I1119 19:24:53.656986 14011 net.cpp:408] lstm1_unit_4 -> h_4
I1119 19:24:53.657022 14011 net.cpp:150] Setting up lstm1_unit_4
I1119 19:24:53.657032 14011 net.cpp:157] Top shape: 1 128 128 (16384)
I1119 19:24:53.657037 14011 net.cpp:157] Top shape: 1 128 128 (16384)
I1119 19:24:53.657039 14011 net.cpp:165] Memory required for data: 18546688
I1119 19:24:53.657043 14011 layer_factory.hpp:77] Creating layer h_4_lstm1_unit_4_1_split
I1119 19:24:53.657049 14011 net.cpp:100] Creating Layer h_4_lstm1_unit_4_1_split
I1119 19:24:53.657053 14011 net.cpp:434] h_4_lstm1_unit_4_1_split <- h_4
I1119 19:24:53.657059 14011 net.cpp:408] h_4_lstm1_unit_4_1_split -> h_4_lstm1_unit_4_1_split_0
I1119 19:24:53.657066 14011 net.cpp:408] h_4_lstm1_unit_4_1_split -> h_4_lstm1_unit_4_1_split_1
I1119 19:24:53.657094 14011 net.cpp:150] Setting up h_4_lstm1_unit_4_1_split
I1119 19:24:53.657100 14011 net.cpp:157] Top shape: 1 128 128 (16384)
I1119 19:24:53.657105 14011 net.cpp:157] Top shape: 1 128 128 (16384)
I1119 19:24:53.657109 14011 net.cpp:165] Memory required for data: 18677760
I1119 19:24:53.657112 14011 layer_factory.hpp:77] Creating layer lstm1_h_conted_4
I1119 19:24:53.657119 14011 net.cpp:100] Creating Layer lstm1_h_conted_4
I1119 19:24:53.657124 14011 net.cpp:434] lstm1_h_conted_4 <- h_4_lstm1_unit_4_1_split_0
I1119 19:24:53.657129 14011 net.cpp:434] lstm1_h_conted_4 <- cont_5_lstm1_cont_slice_4_split_0
I1119 19:24:53.657135 14011 net.cpp:408] lstm1_h_conted_4 -> h_conted_4
I1119 19:24:53.657181 14011 net.cpp:150] Setting up lstm1_h_conted_4
I1119 19:24:53.657189 14011 net.cpp:157] Top shape: 1 128 128 (16384)
I1119 19:24:53.657193 14011 net.cpp:165] Memory required for data: 18743296
I1119 19:24:53.657197 14011 layer_factory.hpp:77] Creating layer lstm1_transform_5
I1119 19:24:53.657203 14011 net.cpp:100] Creating Layer lstm1_transform_5
I1119 19:24:53.657208 14011 net.cpp:434] lstm1_transform_5 <- h_conted_4
I1119 19:24:53.657214 14011 net.cpp:408] lstm1_transform_5 -> W_hc_h_4
I1119 19:24:53.657691 14011 net.cpp:150] Setting up lstm1_transform_5
I1119 19:24:53.657701 14011 net.cpp:157] Top shape: 1 128 512 (65536)
I1119 19:24:53.657704 14011 net.cpp:165] Memory required for data: 19005440
I1119 19:24:53.657709 14011 net.cpp:493] Sharing parameters 'W_hc' owned by layer 'lstm1_transform_1', param index 0
I1119 19:24:53.657713 14011 layer_factory.hpp:77] Creating layer lstm1_gate_input_5
I1119 19:24:53.657719 14011 net.cpp:100] Creating Layer lstm1_gate_input_5
I1119 19:24:53.657724 14011 net.cpp:434] lstm1_gate_input_5 <- W_hc_h_4
I1119 19:24:53.657728 14011 net.cpp:434] lstm1_gate_input_5 <- W_xc_x_5
I1119 19:24:53.657734 14011 net.cpp:408] lstm1_gate_input_5 -> gate_input_5
I1119 19:24:53.657754 14011 net.cpp:150] Setting up lstm1_gate_input_5
I1119 19:24:53.657761 14011 net.cpp:157] Top shape: 1 128 512 (65536)
I1119 19:24:53.657764 14011 net.cpp:165] Memory required for data: 19267584
I1119 19:24:53.657768 14011 layer_factory.hpp:77] Creating layer lstm1_unit_5
I1119 19:24:53.657774 14011 net.cpp:100] Creating Layer lstm1_unit_5
I1119 19:24:53.657778 14011 net.cpp:434] lstm1_unit_5 <- c_4
I1119 19:24:53.657783 14011 net.cpp:434] lstm1_unit_5 <- gate_input_5
I1119 19:24:53.657788 14011 net.cpp:434] lstm1_unit_5 <- cont_5_lstm1_cont_slice_4_split_1
I1119 19:24:53.657793 14011 net.cpp:408] lstm1_unit_5 -> c_5
I1119 19:24:53.657800 14011 net.cpp:408] lstm1_unit_5 -> h_5
I1119 19:24:53.657835 14011 net.cpp:150] Setting up lstm1_unit_5
I1119 19:24:53.657842 14011 net.cpp:157] Top shape: 1 128 128 (16384)
I1119 19:24:53.657847 14011 net.cpp:157] Top shape: 1 128 128 (16384)
I1119 19:24:53.657851 14011 net.cpp:165] Memory required for data: 19398656
I1119 19:24:53.657855 14011 layer_factory.hpp:77] Creating layer h_5_lstm1_unit_5_1_split
I1119 19:24:53.657861 14011 net.cpp:100] Creating Layer h_5_lstm1_unit_5_1_split
I1119 19:24:53.657866 14011 net.cpp:434] h_5_lstm1_unit_5_1_split <- h_5
I1119 19:24:53.657871 14011 net.cpp:408] h_5_lstm1_unit_5_1_split -> h_5_lstm1_unit_5_1_split_0
I1119 19:24:53.657877 14011 net.cpp:408] h_5_lstm1_unit_5_1_split -> h_5_lstm1_unit_5_1_split_1
I1119 19:24:53.657904 14011 net.cpp:150] Setting up h_5_lstm1_unit_5_1_split
I1119 19:24:53.657912 14011 net.cpp:157] Top shape: 1 128 128 (16384)
I1119 19:24:53.657915 14011 net.cpp:157] Top shape: 1 128 128 (16384)
I1119 19:24:53.657919 14011 net.cpp:165] Memory required for data: 19529728
I1119 19:24:53.657923 14011 layer_factory.hpp:77] Creating layer lstm1_h_conted_5
I1119 19:24:53.657929 14011 net.cpp:100] Creating Layer lstm1_h_conted_5
I1119 19:24:53.657933 14011 net.cpp:434] lstm1_h_conted_5 <- h_5_lstm1_unit_5_1_split_0
I1119 19:24:53.657938 14011 net.cpp:434] lstm1_h_conted_5 <- cont_6_lstm1_cont_slice_5_split_0
I1119 19:24:53.657944 14011 net.cpp:408] lstm1_h_conted_5 -> h_conted_5
I1119 19:24:53.657989 14011 net.cpp:150] Setting up lstm1_h_conted_5
I1119 19:24:53.657996 14011 net.cpp:157] Top shape: 1 128 128 (16384)
I1119 19:24:53.658000 14011 net.cpp:165] Memory required for data: 19595264
I1119 19:24:53.658004 14011 layer_factory.hpp:77] Creating layer lstm1_transform_6
I1119 19:24:53.658016 14011 net.cpp:100] Creating Layer lstm1_transform_6
I1119 19:24:53.658021 14011 net.cpp:434] lstm1_transform_6 <- h_conted_5
I1119 19:24:53.658027 14011 net.cpp:408] lstm1_transform_6 -> W_hc_h_5
I1119 19:24:53.658498 14011 net.cpp:150] Setting up lstm1_transform_6
I1119 19:24:53.658506 14011 net.cpp:157] Top shape: 1 128 512 (65536)
I1119 19:24:53.658510 14011 net.cpp:165] Memory required for data: 19857408
I1119 19:24:53.658514 14011 net.cpp:493] Sharing parameters 'W_hc' owned by layer 'lstm1_transform_1', param index 0
I1119 19:24:53.658519 14011 layer_factory.hpp:77] Creating layer lstm1_gate_input_6
I1119 19:24:53.658525 14011 net.cpp:100] Creating Layer lstm1_gate_input_6
I1119 19:24:53.658530 14011 net.cpp:434] lstm1_gate_input_6 <- W_hc_h_5
I1119 19:24:53.658535 14011 net.cpp:434] lstm1_gate_input_6 <- W_xc_x_6
I1119 19:24:53.658541 14011 net.cpp:408] lstm1_gate_input_6 -> gate_input_6
I1119 19:24:53.658560 14011 net.cpp:150] Setting up lstm1_gate_input_6
I1119 19:24:53.658567 14011 net.cpp:157] Top shape: 1 128 512 (65536)
I1119 19:24:53.658571 14011 net.cpp:165] Memory required for data: 20119552
I1119 19:24:53.658576 14011 layer_factory.hpp:77] Creating layer lstm1_unit_6
I1119 19:24:53.658581 14011 net.cpp:100] Creating Layer lstm1_unit_6
I1119 19:24:53.658586 14011 net.cpp:434] lstm1_unit_6 <- c_5
I1119 19:24:53.658591 14011 net.cpp:434] lstm1_unit_6 <- gate_input_6
I1119 19:24:53.658594 14011 net.cpp:434] lstm1_unit_6 <- cont_6_lstm1_cont_slice_5_split_1
I1119 19:24:53.658601 14011 net.cpp:408] lstm1_unit_6 -> c_6
I1119 19:24:53.658607 14011 net.cpp:408] lstm1_unit_6 -> h_6
I1119 19:24:53.658641 14011 net.cpp:150] Setting up lstm1_unit_6
I1119 19:24:53.658648 14011 net.cpp:157] Top shape: 1 128 128 (16384)
I1119 19:24:53.658653 14011 net.cpp:157] Top shape: 1 128 128 (16384)
I1119 19:24:53.658656 14011 net.cpp:165] Memory required for data: 20250624
I1119 19:24:53.658660 14011 layer_factory.hpp:77] Creating layer h_6_lstm1_unit_6_1_split
I1119 19:24:53.658666 14011 net.cpp:100] Creating Layer h_6_lstm1_unit_6_1_split
I1119 19:24:53.658670 14011 net.cpp:434] h_6_lstm1_unit_6_1_split <- h_6
I1119 19:24:53.658676 14011 net.cpp:408] h_6_lstm1_unit_6_1_split -> h_6_lstm1_unit_6_1_split_0
I1119 19:24:53.658682 14011 net.cpp:408] h_6_lstm1_unit_6_1_split -> h_6_lstm1_unit_6_1_split_1
I1119 19:24:53.658710 14011 net.cpp:150] Setting up h_6_lstm1_unit_6_1_split
I1119 19:24:53.658716 14011 net.cpp:157] Top shape: 1 128 128 (16384)
I1119 19:24:53.658721 14011 net.cpp:157] Top shape: 1 128 128 (16384)
I1119 19:24:53.658725 14011 net.cpp:165] Memory required for data: 20381696
I1119 19:24:53.658728 14011 layer_factory.hpp:77] Creating layer lstm1_h_conted_6
I1119 19:24:53.658735 14011 net.cpp:100] Creating Layer lstm1_h_conted_6
I1119 19:24:53.658738 14011 net.cpp:434] lstm1_h_conted_6 <- h_6_lstm1_unit_6_1_split_0
I1119 19:24:53.658743 14011 net.cpp:434] lstm1_h_conted_6 <- cont_7_lstm1_cont_slice_6_split_0
I1119 19:24:53.658756 14011 net.cpp:408] lstm1_h_conted_6 -> h_conted_6
I1119 19:24:53.658804 14011 net.cpp:150] Setting up lstm1_h_conted_6
I1119 19:24:53.658812 14011 net.cpp:157] Top shape: 1 128 128 (16384)
I1119 19:24:53.658815 14011 net.cpp:165] Memory required for data: 20447232
I1119 19:24:53.658819 14011 layer_factory.hpp:77] Creating layer lstm1_transform_7
I1119 19:24:53.658830 14011 net.cpp:100] Creating Layer lstm1_transform_7
I1119 19:24:53.658835 14011 net.cpp:434] lstm1_transform_7 <- h_conted_6
I1119 19:24:53.658843 14011 net.cpp:408] lstm1_transform_7 -> W_hc_h_6
I1119 19:24:53.659306 14011 net.cpp:150] Setting up lstm1_transform_7
I1119 19:24:53.659315 14011 net.cpp:157] Top shape: 1 128 512 (65536)
I1119 19:24:53.659319 14011 net.cpp:165] Memory required for data: 20709376
I1119 19:24:53.659327 14011 net.cpp:493] Sharing parameters 'W_hc' owned by layer 'lstm1_transform_1', param index 0
I1119 19:24:53.659332 14011 layer_factory.hpp:77] Creating layer lstm1_gate_input_7
I1119 19:24:53.659338 14011 net.cpp:100] Creating Layer lstm1_gate_input_7
I1119 19:24:53.659343 14011 net.cpp:434] lstm1_gate_input_7 <- W_hc_h_6
I1119 19:24:53.659348 14011 net.cpp:434] lstm1_gate_input_7 <- W_xc_x_7
I1119 19:24:53.659355 14011 net.cpp:408] lstm1_gate_input_7 -> gate_input_7
I1119 19:24:53.659375 14011 net.cpp:150] Setting up lstm1_gate_input_7
I1119 19:24:53.659384 14011 net.cpp:157] Top shape: 1 128 512 (65536)
I1119 19:24:53.659387 14011 net.cpp:165] Memory required for data: 20971520
I1119 19:24:53.659391 14011 layer_factory.hpp:77] Creating layer lstm1_unit_7
I1119 19:24:53.659396 14011 net.cpp:100] Creating Layer lstm1_unit_7
I1119 19:24:53.659402 14011 net.cpp:434] lstm1_unit_7 <- c_6
I1119 19:24:53.659407 14011 net.cpp:434] lstm1_unit_7 <- gate_input_7
I1119 19:24:53.659412 14011 net.cpp:434] lstm1_unit_7 <- cont_7_lstm1_cont_slice_6_split_1
I1119 19:24:53.659418 14011 net.cpp:408] lstm1_unit_7 -> c_7
I1119 19:24:53.659426 14011 net.cpp:408] lstm1_unit_7 -> h_7
I1119 19:24:53.659461 14011 net.cpp:150] Setting up lstm1_unit_7
I1119 19:24:53.659471 14011 net.cpp:157] Top shape: 1 128 128 (16384)
I1119 19:24:53.659476 14011 net.cpp:157] Top shape: 1 128 128 (16384)
I1119 19:24:53.659478 14011 net.cpp:165] Memory required for data: 21102592
I1119 19:24:53.659482 14011 layer_factory.hpp:77] Creating layer h_7_lstm1_unit_7_1_split
I1119 19:24:53.659488 14011 net.cpp:100] Creating Layer h_7_lstm1_unit_7_1_split
I1119 19:24:53.659493 14011 net.cpp:434] h_7_lstm1_unit_7_1_split <- h_7
I1119 19:24:53.659499 14011 net.cpp:408] h_7_lstm1_unit_7_1_split -> h_7_lstm1_unit_7_1_split_0
I1119 19:24:53.659505 14011 net.cpp:408] h_7_lstm1_unit_7_1_split -> h_7_lstm1_unit_7_1_split_1
I1119 19:24:53.659533 14011 net.cpp:150] Setting up h_7_lstm1_unit_7_1_split
I1119 19:24:53.659541 14011 net.cpp:157] Top shape: 1 128 128 (16384)
I1119 19:24:53.659546 14011 net.cpp:157] Top shape: 1 128 128 (16384)
I1119 19:24:53.659549 14011 net.cpp:165] Memory required for data: 21233664
I1119 19:24:53.659554 14011 layer_factory.hpp:77] Creating layer lstm1_h_conted_7
I1119 19:24:53.659559 14011 net.cpp:100] Creating Layer lstm1_h_conted_7
I1119 19:24:53.659564 14011 net.cpp:434] lstm1_h_conted_7 <- h_7_lstm1_unit_7_1_split_0
I1119 19:24:53.659569 14011 net.cpp:434] lstm1_h_conted_7 <- cont_8_lstm1_cont_slice_7_split_0
I1119 19:24:53.659576 14011 net.cpp:408] lstm1_h_conted_7 -> h_conted_7
I1119 19:24:53.659621 14011 net.cpp:150] Setting up lstm1_h_conted_7
I1119 19:24:53.659629 14011 net.cpp:157] Top shape: 1 128 128 (16384)
I1119 19:24:53.659641 14011 net.cpp:165] Memory required for data: 21299200
I1119 19:24:53.659644 14011 layer_factory.hpp:77] Creating layer lstm1_transform_8
I1119 19:24:53.659651 14011 net.cpp:100] Creating Layer lstm1_transform_8
I1119 19:24:53.659656 14011 net.cpp:434] lstm1_transform_8 <- h_conted_7
I1119 19:24:53.659662 14011 net.cpp:408] lstm1_transform_8 -> W_hc_h_7
I1119 19:24:53.660131 14011 net.cpp:150] Setting up lstm1_transform_8
I1119 19:24:53.660141 14011 net.cpp:157] Top shape: 1 128 512 (65536)
I1119 19:24:53.660145 14011 net.cpp:165] Memory required for data: 21561344
I1119 19:24:53.660149 14011 net.cpp:493] Sharing parameters 'W_hc' owned by layer 'lstm1_transform_1', param index 0
I1119 19:24:53.660154 14011 layer_factory.hpp:77] Creating layer lstm1_gate_input_8
I1119 19:24:53.660159 14011 net.cpp:100] Creating Layer lstm1_gate_input_8
I1119 19:24:53.660164 14011 net.cpp:434] lstm1_gate_input_8 <- W_hc_h_7
I1119 19:24:53.660169 14011 net.cpp:434] lstm1_gate_input_8 <- W_xc_x_8
I1119 19:24:53.660176 14011 net.cpp:408] lstm1_gate_input_8 -> gate_input_8
I1119 19:24:53.660195 14011 net.cpp:150] Setting up lstm1_gate_input_8
I1119 19:24:53.660203 14011 net.cpp:157] Top shape: 1 128 512 (65536)
I1119 19:24:53.660207 14011 net.cpp:165] Memory required for data: 21823488
I1119 19:24:53.660212 14011 layer_factory.hpp:77] Creating layer lstm1_unit_8
I1119 19:24:53.660217 14011 net.cpp:100] Creating Layer lstm1_unit_8
I1119 19:24:53.660220 14011 net.cpp:434] lstm1_unit_8 <- c_7
I1119 19:24:53.660225 14011 net.cpp:434] lstm1_unit_8 <- gate_input_8
I1119 19:24:53.660230 14011 net.cpp:434] lstm1_unit_8 <- cont_8_lstm1_cont_slice_7_split_1
I1119 19:24:53.660235 14011 net.cpp:408] lstm1_unit_8 -> c_8
I1119 19:24:53.660243 14011 net.cpp:408] lstm1_unit_8 -> h_8
I1119 19:24:53.660276 14011 net.cpp:150] Setting up lstm1_unit_8
I1119 19:24:53.660284 14011 net.cpp:157] Top shape: 1 128 128 (16384)
I1119 19:24:53.660289 14011 net.cpp:157] Top shape: 1 128 128 (16384)
I1119 19:24:53.660292 14011 net.cpp:165] Memory required for data: 21954560
I1119 19:24:53.660296 14011 layer_factory.hpp:77] Creating layer h_8_lstm1_unit_8_1_split
I1119 19:24:53.660301 14011 net.cpp:100] Creating Layer h_8_lstm1_unit_8_1_split
I1119 19:24:53.660305 14011 net.cpp:434] h_8_lstm1_unit_8_1_split <- h_8
I1119 19:24:53.660311 14011 net.cpp:408] h_8_lstm1_unit_8_1_split -> h_8_lstm1_unit_8_1_split_0
I1119 19:24:53.660318 14011 net.cpp:408] h_8_lstm1_unit_8_1_split -> h_8_lstm1_unit_8_1_split_1
I1119 19:24:53.660344 14011 net.cpp:150] Setting up h_8_lstm1_unit_8_1_split
I1119 19:24:53.660351 14011 net.cpp:157] Top shape: 1 128 128 (16384)
I1119 19:24:53.660356 14011 net.cpp:157] Top shape: 1 128 128 (16384)
I1119 19:24:53.660359 14011 net.cpp:165] Memory required for data: 22085632
I1119 19:24:53.660363 14011 layer_factory.hpp:77] Creating layer lstm1_h_conted_8
I1119 19:24:53.660369 14011 net.cpp:100] Creating Layer lstm1_h_conted_8
I1119 19:24:53.660373 14011 net.cpp:434] lstm1_h_conted_8 <- h_8_lstm1_unit_8_1_split_0
I1119 19:24:53.660378 14011 net.cpp:434] lstm1_h_conted_8 <- cont_9_lstm1_cont_slice_8_split_0
I1119 19:24:53.660384 14011 net.cpp:408] lstm1_h_conted_8 -> h_conted_8
I1119 19:24:53.660429 14011 net.cpp:150] Setting up lstm1_h_conted_8
I1119 19:24:53.660436 14011 net.cpp:157] Top shape: 1 128 128 (16384)
I1119 19:24:53.660440 14011 net.cpp:165] Memory required for data: 22151168
I1119 19:24:53.660444 14011 layer_factory.hpp:77] Creating layer lstm1_transform_9
I1119 19:24:53.660450 14011 net.cpp:100] Creating Layer lstm1_transform_9
I1119 19:24:53.660454 14011 net.cpp:434] lstm1_transform_9 <- h_conted_8
I1119 19:24:53.660460 14011 net.cpp:408] lstm1_transform_9 -> W_hc_h_8
I1119 19:24:53.661900 14011 net.cpp:150] Setting up lstm1_transform_9
I1119 19:24:53.661919 14011 net.cpp:157] Top shape: 1 128 512 (65536)
I1119 19:24:53.661923 14011 net.cpp:165] Memory required for data: 22413312
I1119 19:24:53.661931 14011 net.cpp:493] Sharing parameters 'W_hc' owned by layer 'lstm1_transform_1', param index 0
I1119 19:24:53.661936 14011 layer_factory.hpp:77] Creating layer lstm1_gate_input_9
I1119 19:24:53.661944 14011 net.cpp:100] Creating Layer lstm1_gate_input_9
I1119 19:24:53.661952 14011 net.cpp:434] lstm1_gate_input_9 <- W_hc_h_8
I1119 19:24:53.661958 14011 net.cpp:434] lstm1_gate_input_9 <- W_xc_x_9
I1119 19:24:53.661965 14011 net.cpp:408] lstm1_gate_input_9 -> gate_input_9
I1119 19:24:53.661991 14011 net.cpp:150] Setting up lstm1_gate_input_9
I1119 19:24:53.662001 14011 net.cpp:157] Top shape: 1 128 512 (65536)
I1119 19:24:53.662004 14011 net.cpp:165] Memory required for data: 22675456
I1119 19:24:53.662009 14011 layer_factory.hpp:77] Creating layer lstm1_unit_9
I1119 19:24:53.662014 14011 net.cpp:100] Creating Layer lstm1_unit_9
I1119 19:24:53.662019 14011 net.cpp:434] lstm1_unit_9 <- c_8
I1119 19:24:53.662024 14011 net.cpp:434] lstm1_unit_9 <- gate_input_9
I1119 19:24:53.662031 14011 net.cpp:434] lstm1_unit_9 <- cont_9_lstm1_cont_slice_8_split_1
I1119 19:24:53.662039 14011 net.cpp:408] lstm1_unit_9 -> c_9
I1119 19:24:53.662047 14011 net.cpp:408] lstm1_unit_9 -> h_9
I1119 19:24:53.662084 14011 net.cpp:150] Setting up lstm1_unit_9
I1119 19:24:53.662092 14011 net.cpp:157] Top shape: 1 128 128 (16384)
I1119 19:24:53.662097 14011 net.cpp:157] Top shape: 1 128 128 (16384)
I1119 19:24:53.662101 14011 net.cpp:165] Memory required for data: 22806528
I1119 19:24:53.662106 14011 layer_factory.hpp:77] Creating layer h_9_lstm1_unit_9_1_split
I1119 19:24:53.662111 14011 net.cpp:100] Creating Layer h_9_lstm1_unit_9_1_split
I1119 19:24:53.662115 14011 net.cpp:434] h_9_lstm1_unit_9_1_split <- h_9
I1119 19:24:53.662122 14011 net.cpp:408] h_9_lstm1_unit_9_1_split -> h_9_lstm1_unit_9_1_split_0
I1119 19:24:53.662128 14011 net.cpp:408] h_9_lstm1_unit_9_1_split -> h_9_lstm1_unit_9_1_split_1
I1119 19:24:53.662156 14011 net.cpp:150] Setting up h_9_lstm1_unit_9_1_split
I1119 19:24:53.662164 14011 net.cpp:157] Top shape: 1 128 128 (16384)
I1119 19:24:53.662169 14011 net.cpp:157] Top shape: 1 128 128 (16384)
I1119 19:24:53.662173 14011 net.cpp:165] Memory required for data: 22937600
I1119 19:24:53.662176 14011 layer_factory.hpp:77] Creating layer lstm1_h_conted_9
I1119 19:24:53.662184 14011 net.cpp:100] Creating Layer lstm1_h_conted_9
I1119 19:24:53.662189 14011 net.cpp:434] lstm1_h_conted_9 <- h_9_lstm1_unit_9_1_split_0
I1119 19:24:53.662195 14011 net.cpp:434] lstm1_h_conted_9 <- cont_10_lstm1_cont_slice_9_split_0
I1119 19:24:53.662201 14011 net.cpp:408] lstm1_h_conted_9 -> h_conted_9
I1119 19:24:53.662250 14011 net.cpp:150] Setting up lstm1_h_conted_9
I1119 19:24:53.662258 14011 net.cpp:157] Top shape: 1 128 128 (16384)
I1119 19:24:53.662262 14011 net.cpp:165] Memory required for data: 23003136
I1119 19:24:53.662266 14011 layer_factory.hpp:77] Creating layer lstm1_transform_10
I1119 19:24:53.662273 14011 net.cpp:100] Creating Layer lstm1_transform_10
I1119 19:24:53.662279 14011 net.cpp:434] lstm1_transform_10 <- h_conted_9
I1119 19:24:53.662286 14011 net.cpp:408] lstm1_transform_10 -> W_hc_h_9
I1119 19:24:53.662746 14011 net.cpp:150] Setting up lstm1_transform_10
I1119 19:24:53.662756 14011 net.cpp:157] Top shape: 1 128 512 (65536)
I1119 19:24:53.662760 14011 net.cpp:165] Memory required for data: 23265280
I1119 19:24:53.662765 14011 net.cpp:493] Sharing parameters 'W_hc' owned by layer 'lstm1_transform_1', param index 0
I1119 19:24:53.662770 14011 layer_factory.hpp:77] Creating layer lstm1_gate_input_10
I1119 19:24:53.662775 14011 net.cpp:100] Creating Layer lstm1_gate_input_10
I1119 19:24:53.662781 14011 net.cpp:434] lstm1_gate_input_10 <- W_hc_h_9
I1119 19:24:53.662786 14011 net.cpp:434] lstm1_gate_input_10 <- W_xc_x_10
I1119 19:24:53.662793 14011 net.cpp:408] lstm1_gate_input_10 -> gate_input_10
I1119 19:24:53.662814 14011 net.cpp:150] Setting up lstm1_gate_input_10
I1119 19:24:53.662822 14011 net.cpp:157] Top shape: 1 128 512 (65536)
I1119 19:24:53.662827 14011 net.cpp:165] Memory required for data: 23527424
I1119 19:24:53.662830 14011 layer_factory.hpp:77] Creating layer lstm1_unit_10
I1119 19:24:53.662837 14011 net.cpp:100] Creating Layer lstm1_unit_10
I1119 19:24:53.662840 14011 net.cpp:434] lstm1_unit_10 <- c_9
I1119 19:24:53.662845 14011 net.cpp:434] lstm1_unit_10 <- gate_input_10
I1119 19:24:53.662850 14011 net.cpp:434] lstm1_unit_10 <- cont_10_lstm1_cont_slice_9_split_1
I1119 19:24:53.662856 14011 net.cpp:408] lstm1_unit_10 -> c_10
I1119 19:24:53.662863 14011 net.cpp:408] lstm1_unit_10 -> h_10
I1119 19:24:53.662907 14011 net.cpp:150] Setting up lstm1_unit_10
I1119 19:24:53.662915 14011 net.cpp:157] Top shape: 1 128 128 (16384)
I1119 19:24:53.662920 14011 net.cpp:157] Top shape: 1 128 128 (16384)
I1119 19:24:53.662925 14011 net.cpp:165] Memory required for data: 23658496
I1119 19:24:53.662928 14011 layer_factory.hpp:77] Creating layer h_10_lstm1_unit_10_1_split
I1119 19:24:53.662933 14011 net.cpp:100] Creating Layer h_10_lstm1_unit_10_1_split
I1119 19:24:53.662940 14011 net.cpp:434] h_10_lstm1_unit_10_1_split <- h_10
I1119 19:24:53.662945 14011 net.cpp:408] h_10_lstm1_unit_10_1_split -> h_10_lstm1_unit_10_1_split_0
I1119 19:24:53.662953 14011 net.cpp:408] h_10_lstm1_unit_10_1_split -> h_10_lstm1_unit_10_1_split_1
I1119 19:24:53.662982 14011 net.cpp:150] Setting up h_10_lstm1_unit_10_1_split
I1119 19:24:53.662991 14011 net.cpp:157] Top shape: 1 128 128 (16384)
I1119 19:24:53.662995 14011 net.cpp:157] Top shape: 1 128 128 (16384)
I1119 19:24:53.662999 14011 net.cpp:165] Memory required for data: 23789568
I1119 19:24:53.663003 14011 layer_factory.hpp:77] Creating layer lstm1_h_conted_10
I1119 19:24:53.663014 14011 net.cpp:100] Creating Layer lstm1_h_conted_10
I1119 19:24:53.663020 14011 net.cpp:434] lstm1_h_conted_10 <- h_10_lstm1_unit_10_1_split_0
I1119 19:24:53.663027 14011 net.cpp:434] lstm1_h_conted_10 <- cont_11_lstm1_cont_slice_10_split_0
I1119 19:24:53.663033 14011 net.cpp:408] lstm1_h_conted_10 -> h_conted_10
I1119 19:24:53.663079 14011 net.cpp:150] Setting up lstm1_h_conted_10
I1119 19:24:53.663087 14011 net.cpp:157] Top shape: 1 128 128 (16384)
I1119 19:24:53.663091 14011 net.cpp:165] Memory required for data: 23855104
I1119 19:24:53.663095 14011 layer_factory.hpp:77] Creating layer lstm1_transform_11
I1119 19:24:53.663101 14011 net.cpp:100] Creating Layer lstm1_transform_11
I1119 19:24:53.663107 14011 net.cpp:434] lstm1_transform_11 <- h_conted_10
I1119 19:24:53.663113 14011 net.cpp:408] lstm1_transform_11 -> W_hc_h_10
I1119 19:24:53.663563 14011 net.cpp:150] Setting up lstm1_transform_11
I1119 19:24:53.663573 14011 net.cpp:157] Top shape: 1 128 512 (65536)
I1119 19:24:53.663578 14011 net.cpp:165] Memory required for data: 24117248
I1119 19:24:53.663583 14011 net.cpp:493] Sharing parameters 'W_hc' owned by layer 'lstm1_transform_1', param index 0
I1119 19:24:53.663586 14011 layer_factory.hpp:77] Creating layer lstm1_gate_input_11
I1119 19:24:53.663599 14011 net.cpp:100] Creating Layer lstm1_gate_input_11
I1119 19:24:53.663605 14011 net.cpp:434] lstm1_gate_input_11 <- W_hc_h_10
I1119 19:24:53.663610 14011 net.cpp:434] lstm1_gate_input_11 <- W_xc_x_11
I1119 19:24:53.663616 14011 net.cpp:408] lstm1_gate_input_11 -> gate_input_11
I1119 19:24:53.663655 14011 net.cpp:150] Setting up lstm1_gate_input_11
I1119 19:24:53.663664 14011 net.cpp:157] Top shape: 1 128 512 (65536)
I1119 19:24:53.663668 14011 net.cpp:165] Memory required for data: 24379392
I1119 19:24:53.663672 14011 layer_factory.hpp:77] Creating layer lstm1_unit_11
I1119 19:24:53.663683 14011 net.cpp:100] Creating Layer lstm1_unit_11
I1119 19:24:53.663689 14011 net.cpp:434] lstm1_unit_11 <- c_10
I1119 19:24:53.663694 14011 net.cpp:434] lstm1_unit_11 <- gate_input_11
I1119 19:24:53.663699 14011 net.cpp:434] lstm1_unit_11 <- cont_11_lstm1_cont_slice_10_split_1
I1119 19:24:53.663705 14011 net.cpp:408] lstm1_unit_11 -> c_11
I1119 19:24:53.663713 14011 net.cpp:408] lstm1_unit_11 -> h_11
I1119 19:24:53.663756 14011 net.cpp:150] Setting up lstm1_unit_11
I1119 19:24:53.663765 14011 net.cpp:157] Top shape: 1 128 128 (16384)
I1119 19:24:53.663770 14011 net.cpp:157] Top shape: 1 128 128 (16384)
I1119 19:24:53.663774 14011 net.cpp:165] Memory required for data: 24510464
I1119 19:24:53.663777 14011 layer_factory.hpp:77] Creating layer h_11_lstm1_unit_11_1_split
I1119 19:24:53.663784 14011 net.cpp:100] Creating Layer h_11_lstm1_unit_11_1_split
I1119 19:24:53.663787 14011 net.cpp:434] h_11_lstm1_unit_11_1_split <- h_11
I1119 19:24:53.663794 14011 net.cpp:408] h_11_lstm1_unit_11_1_split -> h_11_lstm1_unit_11_1_split_0
I1119 19:24:53.663800 14011 net.cpp:408] h_11_lstm1_unit_11_1_split -> h_11_lstm1_unit_11_1_split_1
I1119 19:24:53.663830 14011 net.cpp:150] Setting up h_11_lstm1_unit_11_1_split
I1119 19:24:53.663838 14011 net.cpp:157] Top shape: 1 128 128 (16384)
I1119 19:24:53.663843 14011 net.cpp:157] Top shape: 1 128 128 (16384)
I1119 19:24:53.663846 14011 net.cpp:165] Memory required for data: 24641536
I1119 19:24:53.663851 14011 layer_factory.hpp:77] Creating layer lstm1_h_conted_11
I1119 19:24:53.663856 14011 net.cpp:100] Creating Layer lstm1_h_conted_11
I1119 19:24:53.663861 14011 net.cpp:434] lstm1_h_conted_11 <- h_11_lstm1_unit_11_1_split_0
I1119 19:24:53.663868 14011 net.cpp:434] lstm1_h_conted_11 <- cont_12_lstm1_cont_slice_11_split_0
I1119 19:24:53.663874 14011 net.cpp:408] lstm1_h_conted_11 -> h_conted_11
I1119 19:24:53.663923 14011 net.cpp:150] Setting up lstm1_h_conted_11
I1119 19:24:53.663930 14011 net.cpp:157] Top shape: 1 128 128 (16384)
I1119 19:24:53.663934 14011 net.cpp:165] Memory required for data: 24707072
I1119 19:24:53.663938 14011 layer_factory.hpp:77] Creating layer lstm1_transform_12
I1119 19:24:53.663945 14011 net.cpp:100] Creating Layer lstm1_transform_12
I1119 19:24:53.663949 14011 net.cpp:434] lstm1_transform_12 <- h_conted_11
I1119 19:24:53.663955 14011 net.cpp:408] lstm1_transform_12 -> W_hc_h_11
I1119 19:24:53.664404 14011 net.cpp:150] Setting up lstm1_transform_12
I1119 19:24:53.664414 14011 net.cpp:157] Top shape: 1 128 512 (65536)
I1119 19:24:53.664418 14011 net.cpp:165] Memory required for data: 24969216
I1119 19:24:53.664423 14011 net.cpp:493] Sharing parameters 'W_hc' owned by layer 'lstm1_transform_1', param index 0
I1119 19:24:53.664427 14011 layer_factory.hpp:77] Creating layer lstm1_gate_input_12
I1119 19:24:53.664433 14011 net.cpp:100] Creating Layer lstm1_gate_input_12
I1119 19:24:53.664438 14011 net.cpp:434] lstm1_gate_input_12 <- W_hc_h_11
I1119 19:24:53.664443 14011 net.cpp:434] lstm1_gate_input_12 <- W_xc_x_12
I1119 19:24:53.664450 14011 net.cpp:408] lstm1_gate_input_12 -> gate_input_12
I1119 19:24:53.664479 14011 net.cpp:150] Setting up lstm1_gate_input_12
I1119 19:24:53.664487 14011 net.cpp:157] Top shape: 1 128 512 (65536)
I1119 19:24:53.664491 14011 net.cpp:165] Memory required for data: 25231360
I1119 19:24:53.664495 14011 layer_factory.hpp:77] Creating layer lstm1_unit_12
I1119 19:24:53.664501 14011 net.cpp:100] Creating Layer lstm1_unit_12
I1119 19:24:53.664506 14011 net.cpp:434] lstm1_unit_12 <- c_11
I1119 19:24:53.664511 14011 net.cpp:434] lstm1_unit_12 <- gate_input_12
I1119 19:24:53.664517 14011 net.cpp:434] lstm1_unit_12 <- cont_12_lstm1_cont_slice_11_split_1
I1119 19:24:53.664523 14011 net.cpp:408] lstm1_unit_12 -> c_12
I1119 19:24:53.664531 14011 net.cpp:408] lstm1_unit_12 -> h_12
I1119 19:24:53.664567 14011 net.cpp:150] Setting up lstm1_unit_12
I1119 19:24:53.664577 14011 net.cpp:157] Top shape: 1 128 128 (16384)
I1119 19:24:53.664582 14011 net.cpp:157] Top shape: 1 128 128 (16384)
I1119 19:24:53.664584 14011 net.cpp:165] Memory required for data: 25362432
I1119 19:24:53.664588 14011 layer_factory.hpp:77] Creating layer h_12_lstm1_unit_12_1_split
I1119 19:24:53.664594 14011 net.cpp:100] Creating Layer h_12_lstm1_unit_12_1_split
I1119 19:24:53.664599 14011 net.cpp:434] h_12_lstm1_unit_12_1_split <- h_12
I1119 19:24:53.664605 14011 net.cpp:408] h_12_lstm1_unit_12_1_split -> h_12_lstm1_unit_12_1_split_0
I1119 19:24:53.664613 14011 net.cpp:408] h_12_lstm1_unit_12_1_split -> h_12_lstm1_unit_12_1_split_1
I1119 19:24:53.664641 14011 net.cpp:150] Setting up h_12_lstm1_unit_12_1_split
I1119 19:24:53.664649 14011 net.cpp:157] Top shape: 1 128 128 (16384)
I1119 19:24:53.664654 14011 net.cpp:157] Top shape: 1 128 128 (16384)
I1119 19:24:53.664657 14011 net.cpp:165] Memory required for data: 25493504
I1119 19:24:53.664661 14011 layer_factory.hpp:77] Creating layer lstm1_h_conted_12
I1119 19:24:53.664667 14011 net.cpp:100] Creating Layer lstm1_h_conted_12
I1119 19:24:53.664672 14011 net.cpp:434] lstm1_h_conted_12 <- h_12_lstm1_unit_12_1_split_0
I1119 19:24:53.664678 14011 net.cpp:434] lstm1_h_conted_12 <- cont_13_lstm1_cont_slice_12_split_0
I1119 19:24:53.664685 14011 net.cpp:408] lstm1_h_conted_12 -> h_conted_12
I1119 19:24:53.664731 14011 net.cpp:150] Setting up lstm1_h_conted_12
I1119 19:24:53.664739 14011 net.cpp:157] Top shape: 1 128 128 (16384)
I1119 19:24:53.664743 14011 net.cpp:165] Memory required for data: 25559040
I1119 19:24:53.664747 14011 layer_factory.hpp:77] Creating layer lstm1_transform_13
I1119 19:24:53.664753 14011 net.cpp:100] Creating Layer lstm1_transform_13
I1119 19:24:53.664758 14011 net.cpp:434] lstm1_transform_13 <- h_conted_12
I1119 19:24:53.664765 14011 net.cpp:408] lstm1_transform_13 -> W_hc_h_12
I1119 19:24:53.665216 14011 net.cpp:150] Setting up lstm1_transform_13
I1119 19:24:53.665226 14011 net.cpp:157] Top shape: 1 128 512 (65536)
I1119 19:24:53.665230 14011 net.cpp:165] Memory required for data: 25821184
I1119 19:24:53.665235 14011 net.cpp:493] Sharing parameters 'W_hc' owned by layer 'lstm1_transform_1', param index 0
I1119 19:24:53.665240 14011 layer_factory.hpp:77] Creating layer lstm1_gate_input_13
I1119 19:24:53.665246 14011 net.cpp:100] Creating Layer lstm1_gate_input_13
I1119 19:24:53.665249 14011 net.cpp:434] lstm1_gate_input_13 <- W_hc_h_12
I1119 19:24:53.665254 14011 net.cpp:434] lstm1_gate_input_13 <- W_xc_x_13
I1119 19:24:53.665261 14011 net.cpp:408] lstm1_gate_input_13 -> gate_input_13
I1119 19:24:53.665282 14011 net.cpp:150] Setting up lstm1_gate_input_13
I1119 19:24:53.665292 14011 net.cpp:157] Top shape: 1 128 512 (65536)
I1119 19:24:53.665295 14011 net.cpp:165] Memory required for data: 26083328
I1119 19:24:53.665299 14011 layer_factory.hpp:77] Creating layer lstm1_unit_13
I1119 19:24:53.665304 14011 net.cpp:100] Creating Layer lstm1_unit_13
I1119 19:24:53.665309 14011 net.cpp:434] lstm1_unit_13 <- c_12
I1119 19:24:53.665314 14011 net.cpp:434] lstm1_unit_13 <- gate_input_13
I1119 19:24:53.665319 14011 net.cpp:434] lstm1_unit_13 <- cont_13_lstm1_cont_slice_12_split_1
I1119 19:24:53.665325 14011 net.cpp:408] lstm1_unit_13 -> c_13
I1119 19:24:53.665333 14011 net.cpp:408] lstm1_unit_13 -> h_13
I1119 19:24:53.665376 14011 net.cpp:150] Setting up lstm1_unit_13
I1119 19:24:53.665385 14011 net.cpp:157] Top shape: 1 128 128 (16384)
I1119 19:24:53.665390 14011 net.cpp:157] Top shape: 1 128 128 (16384)
I1119 19:24:53.665393 14011 net.cpp:165] Memory required for data: 26214400
I1119 19:24:53.665397 14011 layer_factory.hpp:77] Creating layer h_13_lstm1_unit_13_1_split
I1119 19:24:53.665403 14011 net.cpp:100] Creating Layer h_13_lstm1_unit_13_1_split
I1119 19:24:53.665407 14011 net.cpp:434] h_13_lstm1_unit_13_1_split <- h_13
I1119 19:24:53.665413 14011 net.cpp:408] h_13_lstm1_unit_13_1_split -> h_13_lstm1_unit_13_1_split_0
I1119 19:24:53.665426 14011 net.cpp:408] h_13_lstm1_unit_13_1_split -> h_13_lstm1_unit_13_1_split_1
I1119 19:24:53.665455 14011 net.cpp:150] Setting up h_13_lstm1_unit_13_1_split
I1119 19:24:53.665463 14011 net.cpp:157] Top shape: 1 128 128 (16384)
I1119 19:24:53.665468 14011 net.cpp:157] Top shape: 1 128 128 (16384)
I1119 19:24:53.665472 14011 net.cpp:165] Memory required for data: 26345472
I1119 19:24:53.665475 14011 layer_factory.hpp:77] Creating layer lstm1_h_conted_13
I1119 19:24:53.665482 14011 net.cpp:100] Creating Layer lstm1_h_conted_13
I1119 19:24:53.665486 14011 net.cpp:434] lstm1_h_conted_13 <- h_13_lstm1_unit_13_1_split_0
I1119 19:24:53.665491 14011 net.cpp:434] lstm1_h_conted_13 <- cont_14_lstm1_cont_slice_13_split_0
I1119 19:24:53.665498 14011 net.cpp:408] lstm1_h_conted_13 -> h_conted_13
I1119 19:24:53.665544 14011 net.cpp:150] Setting up lstm1_h_conted_13
I1119 19:24:53.665554 14011 net.cpp:157] Top shape: 1 128 128 (16384)
I1119 19:24:53.665557 14011 net.cpp:165] Memory required for data: 26411008
I1119 19:24:53.665561 14011 layer_factory.hpp:77] Creating layer lstm1_transform_14
I1119 19:24:53.665567 14011 net.cpp:100] Creating Layer lstm1_transform_14
I1119 19:24:53.665571 14011 net.cpp:434] lstm1_transform_14 <- h_conted_13
I1119 19:24:53.665577 14011 net.cpp:408] lstm1_transform_14 -> W_hc_h_13
I1119 19:24:53.666028 14011 net.cpp:150] Setting up lstm1_transform_14
I1119 19:24:53.666038 14011 net.cpp:157] Top shape: 1 128 512 (65536)
I1119 19:24:53.666043 14011 net.cpp:165] Memory required for data: 26673152
I1119 19:24:53.666047 14011 net.cpp:493] Sharing parameters 'W_hc' owned by layer 'lstm1_transform_1', param index 0
I1119 19:24:53.666051 14011 layer_factory.hpp:77] Creating layer lstm1_gate_input_14
I1119 19:24:53.666057 14011 net.cpp:100] Creating Layer lstm1_gate_input_14
I1119 19:24:53.666061 14011 net.cpp:434] lstm1_gate_input_14 <- W_hc_h_13
I1119 19:24:53.666066 14011 net.cpp:434] lstm1_gate_input_14 <- W_xc_x_14
I1119 19:24:53.666071 14011 net.cpp:408] lstm1_gate_input_14 -> gate_input_14
I1119 19:24:53.666091 14011 net.cpp:150] Setting up lstm1_gate_input_14
I1119 19:24:53.666100 14011 net.cpp:157] Top shape: 1 128 512 (65536)
I1119 19:24:53.666103 14011 net.cpp:165] Memory required for data: 26935296
I1119 19:24:53.666107 14011 layer_factory.hpp:77] Creating layer lstm1_unit_14
I1119 19:24:53.666112 14011 net.cpp:100] Creating Layer lstm1_unit_14
I1119 19:24:53.666117 14011 net.cpp:434] lstm1_unit_14 <- c_13
I1119 19:24:53.666122 14011 net.cpp:434] lstm1_unit_14 <- gate_input_14
I1119 19:24:53.666127 14011 net.cpp:434] lstm1_unit_14 <- cont_14_lstm1_cont_slice_13_split_1
I1119 19:24:53.666132 14011 net.cpp:408] lstm1_unit_14 -> c_14
I1119 19:24:53.666139 14011 net.cpp:408] lstm1_unit_14 -> h_14
I1119 19:24:53.666183 14011 net.cpp:150] Setting up lstm1_unit_14
I1119 19:24:53.666191 14011 net.cpp:157] Top shape: 1 128 128 (16384)
I1119 19:24:53.666196 14011 net.cpp:157] Top shape: 1 128 128 (16384)
I1119 19:24:53.666200 14011 net.cpp:165] Memory required for data: 27066368
I1119 19:24:53.666204 14011 layer_factory.hpp:77] Creating layer h_14_lstm1_unit_14_1_split
I1119 19:24:53.666210 14011 net.cpp:100] Creating Layer h_14_lstm1_unit_14_1_split
I1119 19:24:53.666215 14011 net.cpp:434] h_14_lstm1_unit_14_1_split <- h_14
I1119 19:24:53.666221 14011 net.cpp:408] h_14_lstm1_unit_14_1_split -> h_14_lstm1_unit_14_1_split_0
I1119 19:24:53.666229 14011 net.cpp:408] h_14_lstm1_unit_14_1_split -> h_14_lstm1_unit_14_1_split_1
I1119 19:24:53.666255 14011 net.cpp:150] Setting up h_14_lstm1_unit_14_1_split
I1119 19:24:53.666263 14011 net.cpp:157] Top shape: 1 128 128 (16384)
I1119 19:24:53.666268 14011 net.cpp:157] Top shape: 1 128 128 (16384)
I1119 19:24:53.666272 14011 net.cpp:165] Memory required for data: 27197440
I1119 19:24:53.666276 14011 layer_factory.hpp:77] Creating layer lstm1_h_conted_14
I1119 19:24:53.666281 14011 net.cpp:100] Creating Layer lstm1_h_conted_14
I1119 19:24:53.666286 14011 net.cpp:434] lstm1_h_conted_14 <- h_14_lstm1_unit_14_1_split_0
I1119 19:24:53.666291 14011 net.cpp:434] lstm1_h_conted_14 <- cont_15_lstm1_cont_slice_14_split_0
I1119 19:24:53.666298 14011 net.cpp:408] lstm1_h_conted_14 -> h_conted_14
I1119 19:24:53.666354 14011 net.cpp:150] Setting up lstm1_h_conted_14
I1119 19:24:53.666363 14011 net.cpp:157] Top shape: 1 128 128 (16384)
I1119 19:24:53.666368 14011 net.cpp:165] Memory required for data: 27262976
I1119 19:24:53.666370 14011 layer_factory.hpp:77] Creating layer lstm1_transform_15
I1119 19:24:53.666378 14011 net.cpp:100] Creating Layer lstm1_transform_15
I1119 19:24:53.666383 14011 net.cpp:434] lstm1_transform_15 <- h_conted_14
I1119 19:24:53.666389 14011 net.cpp:408] lstm1_transform_15 -> W_hc_h_14
I1119 19:24:53.666841 14011 net.cpp:150] Setting up lstm1_transform_15
I1119 19:24:53.666851 14011 net.cpp:157] Top shape: 1 128 512 (65536)
I1119 19:24:53.666855 14011 net.cpp:165] Memory required for data: 27525120
I1119 19:24:53.666863 14011 net.cpp:493] Sharing parameters 'W_hc' owned by layer 'lstm1_transform_1', param index 0
I1119 19:24:53.666868 14011 layer_factory.hpp:77] Creating layer lstm1_gate_input_15
I1119 19:24:53.666874 14011 net.cpp:100] Creating Layer lstm1_gate_input_15
I1119 19:24:53.666879 14011 net.cpp:434] lstm1_gate_input_15 <- W_hc_h_14
I1119 19:24:53.666884 14011 net.cpp:434] lstm1_gate_input_15 <- W_xc_x_15
I1119 19:24:53.666890 14011 net.cpp:408] lstm1_gate_input_15 -> gate_input_15
I1119 19:24:53.666911 14011 net.cpp:150] Setting up lstm1_gate_input_15
I1119 19:24:53.666919 14011 net.cpp:157] Top shape: 1 128 512 (65536)
I1119 19:24:53.666923 14011 net.cpp:165] Memory required for data: 27787264
I1119 19:24:53.666927 14011 layer_factory.hpp:77] Creating layer lstm1_unit_15
I1119 19:24:53.666932 14011 net.cpp:100] Creating Layer lstm1_unit_15
I1119 19:24:53.666937 14011 net.cpp:434] lstm1_unit_15 <- c_14
I1119 19:24:53.666944 14011 net.cpp:434] lstm1_unit_15 <- gate_input_15
I1119 19:24:53.666949 14011 net.cpp:434] lstm1_unit_15 <- cont_15_lstm1_cont_slice_14_split_1
I1119 19:24:53.666963 14011 net.cpp:408] lstm1_unit_15 -> c_15
I1119 19:24:53.666971 14011 net.cpp:408] lstm1_unit_15 -> h_15
I1119 19:24:53.667016 14011 net.cpp:150] Setting up lstm1_unit_15
I1119 19:24:53.667026 14011 net.cpp:157] Top shape: 1 128 128 (16384)
I1119 19:24:53.667030 14011 net.cpp:157] Top shape: 1 128 128 (16384)
I1119 19:24:53.667033 14011 net.cpp:165] Memory required for data: 27918336
I1119 19:24:53.667038 14011 layer_factory.hpp:77] Creating layer h_15_lstm1_unit_15_1_split
I1119 19:24:53.667043 14011 net.cpp:100] Creating Layer h_15_lstm1_unit_15_1_split
I1119 19:24:53.667048 14011 net.cpp:434] h_15_lstm1_unit_15_1_split <- h_15
I1119 19:24:53.667053 14011 net.cpp:408] h_15_lstm1_unit_15_1_split -> h_15_lstm1_unit_15_1_split_0
I1119 19:24:53.667060 14011 net.cpp:408] h_15_lstm1_unit_15_1_split -> h_15_lstm1_unit_15_1_split_1
I1119 19:24:53.667088 14011 net.cpp:150] Setting up h_15_lstm1_unit_15_1_split
I1119 19:24:53.667095 14011 net.cpp:157] Top shape: 1 128 128 (16384)
I1119 19:24:53.667101 14011 net.cpp:157] Top shape: 1 128 128 (16384)
I1119 19:24:53.667104 14011 net.cpp:165] Memory required for data: 28049408
I1119 19:24:53.667109 14011 layer_factory.hpp:77] Creating layer lstm1_h_conted_15
I1119 19:24:53.667114 14011 net.cpp:100] Creating Layer lstm1_h_conted_15
I1119 19:24:53.667120 14011 net.cpp:434] lstm1_h_conted_15 <- h_15_lstm1_unit_15_1_split_0
I1119 19:24:53.667125 14011 net.cpp:434] lstm1_h_conted_15 <- cont_16_lstm1_cont_slice_15_split_0
I1119 19:24:53.667132 14011 net.cpp:408] lstm1_h_conted_15 -> h_conted_15
I1119 19:24:53.667177 14011 net.cpp:150] Setting up lstm1_h_conted_15
I1119 19:24:53.667186 14011 net.cpp:157] Top shape: 1 128 128 (16384)
I1119 19:24:53.667189 14011 net.cpp:165] Memory required for data: 28114944
I1119 19:24:53.667193 14011 layer_factory.hpp:77] Creating layer lstm1_transform_16
I1119 19:24:53.667199 14011 net.cpp:100] Creating Layer lstm1_transform_16
I1119 19:24:53.667204 14011 net.cpp:434] lstm1_transform_16 <- h_conted_15
I1119 19:24:53.667210 14011 net.cpp:408] lstm1_transform_16 -> W_hc_h_15
I1119 19:24:53.667665 14011 net.cpp:150] Setting up lstm1_transform_16
I1119 19:24:53.667676 14011 net.cpp:157] Top shape: 1 128 512 (65536)
I1119 19:24:53.667680 14011 net.cpp:165] Memory required for data: 28377088
I1119 19:24:53.667685 14011 net.cpp:493] Sharing parameters 'W_hc' owned by layer 'lstm1_transform_1', param index 0
I1119 19:24:53.667690 14011 layer_factory.hpp:77] Creating layer lstm1_gate_input_16
I1119 19:24:53.667695 14011 net.cpp:100] Creating Layer lstm1_gate_input_16
I1119 19:24:53.667701 14011 net.cpp:434] lstm1_gate_input_16 <- W_hc_h_15
I1119 19:24:53.667706 14011 net.cpp:434] lstm1_gate_input_16 <- W_xc_x_16
I1119 19:24:53.667712 14011 net.cpp:408] lstm1_gate_input_16 -> gate_input_16
I1119 19:24:53.667733 14011 net.cpp:150] Setting up lstm1_gate_input_16
I1119 19:24:53.667742 14011 net.cpp:157] Top shape: 1 128 512 (65536)
I1119 19:24:53.667745 14011 net.cpp:165] Memory required for data: 28639232
I1119 19:24:53.667748 14011 layer_factory.hpp:77] Creating layer lstm1_unit_16
I1119 19:24:53.667754 14011 net.cpp:100] Creating Layer lstm1_unit_16
I1119 19:24:53.667759 14011 net.cpp:434] lstm1_unit_16 <- c_15
I1119 19:24:53.667765 14011 net.cpp:434] lstm1_unit_16 <- gate_input_16
I1119 19:24:53.667770 14011 net.cpp:434] lstm1_unit_16 <- cont_16_lstm1_cont_slice_15_split_1
I1119 19:24:53.667778 14011 net.cpp:408] lstm1_unit_16 -> c_16
I1119 19:24:53.667785 14011 net.cpp:408] lstm1_unit_16 -> h_16
I1119 19:24:53.667829 14011 net.cpp:150] Setting up lstm1_unit_16
I1119 19:24:53.667837 14011 net.cpp:157] Top shape: 1 128 128 (16384)
I1119 19:24:53.667843 14011 net.cpp:157] Top shape: 1 128 128 (16384)
I1119 19:24:53.667846 14011 net.cpp:165] Memory required for data: 28770304
I1119 19:24:53.667850 14011 layer_factory.hpp:77] Creating layer h_16_lstm1_unit_16_1_split
I1119 19:24:53.667856 14011 net.cpp:100] Creating Layer h_16_lstm1_unit_16_1_split
I1119 19:24:53.667860 14011 net.cpp:434] h_16_lstm1_unit_16_1_split <- h_16
I1119 19:24:53.667866 14011 net.cpp:408] h_16_lstm1_unit_16_1_split -> h_16_lstm1_unit_16_1_split_0
I1119 19:24:53.667873 14011 net.cpp:408] h_16_lstm1_unit_16_1_split -> h_16_lstm1_unit_16_1_split_1
I1119 19:24:53.667899 14011 net.cpp:150] Setting up h_16_lstm1_unit_16_1_split
I1119 19:24:53.667907 14011 net.cpp:157] Top shape: 1 128 128 (16384)
I1119 19:24:53.667912 14011 net.cpp:157] Top shape: 1 128 128 (16384)
I1119 19:24:53.667915 14011 net.cpp:165] Memory required for data: 28901376
I1119 19:24:53.667919 14011 layer_factory.hpp:77] Creating layer lstm1_h_conted_16
I1119 19:24:53.667925 14011 net.cpp:100] Creating Layer lstm1_h_conted_16
I1119 19:24:53.667930 14011 net.cpp:434] lstm1_h_conted_16 <- h_16_lstm1_unit_16_1_split_0
I1119 19:24:53.667935 14011 net.cpp:434] lstm1_h_conted_16 <- cont_17_lstm1_cont_slice_16_split_0
I1119 19:24:53.667942 14011 net.cpp:408] lstm1_h_conted_16 -> h_conted_16
I1119 19:24:53.667985 14011 net.cpp:150] Setting up lstm1_h_conted_16
I1119 19:24:53.667994 14011 net.cpp:157] Top shape: 1 128 128 (16384)
I1119 19:24:53.667999 14011 net.cpp:165] Memory required for data: 28966912
I1119 19:24:53.668002 14011 layer_factory.hpp:77] Creating layer lstm1_transform_17
I1119 19:24:53.668009 14011 net.cpp:100] Creating Layer lstm1_transform_17
I1119 19:24:53.668013 14011 net.cpp:434] lstm1_transform_17 <- h_conted_16
I1119 19:24:53.668020 14011 net.cpp:408] lstm1_transform_17 -> W_hc_h_16
I1119 19:24:53.669337 14011 net.cpp:150] Setting up lstm1_transform_17
I1119 19:24:53.669353 14011 net.cpp:157] Top shape: 1 128 512 (65536)
I1119 19:24:53.669358 14011 net.cpp:165] Memory required for data: 29229056
I1119 19:24:53.669363 14011 net.cpp:493] Sharing parameters 'W_hc' owned by layer 'lstm1_transform_1', param index 0
I1119 19:24:53.669369 14011 layer_factory.hpp:77] Creating layer lstm1_gate_input_17
I1119 19:24:53.669384 14011 net.cpp:100] Creating Layer lstm1_gate_input_17
I1119 19:24:53.669391 14011 net.cpp:434] lstm1_gate_input_17 <- W_hc_h_16
I1119 19:24:53.669397 14011 net.cpp:434] lstm1_gate_input_17 <- W_xc_x_17
I1119 19:24:53.669404 14011 net.cpp:408] lstm1_gate_input_17 -> gate_input_17
I1119 19:24:53.669427 14011 net.cpp:150] Setting up lstm1_gate_input_17
I1119 19:24:53.669435 14011 net.cpp:157] Top shape: 1 128 512 (65536)
I1119 19:24:53.669440 14011 net.cpp:165] Memory required for data: 29491200
I1119 19:24:53.669443 14011 layer_factory.hpp:77] Creating layer lstm1_unit_17
I1119 19:24:53.669450 14011 net.cpp:100] Creating Layer lstm1_unit_17
I1119 19:24:53.669456 14011 net.cpp:434] lstm1_unit_17 <- c_16
I1119 19:24:53.669461 14011 net.cpp:434] lstm1_unit_17 <- gate_input_17
I1119 19:24:53.669467 14011 net.cpp:434] lstm1_unit_17 <- cont_17_lstm1_cont_slice_16_split_1
I1119 19:24:53.669474 14011 net.cpp:408] lstm1_unit_17 -> c_17
I1119 19:24:53.669481 14011 net.cpp:408] lstm1_unit_17 -> h_17
I1119 19:24:53.669528 14011 net.cpp:150] Setting up lstm1_unit_17
I1119 19:24:53.669536 14011 net.cpp:157] Top shape: 1 128 128 (16384)
I1119 19:24:53.669541 14011 net.cpp:157] Top shape: 1 128 128 (16384)
I1119 19:24:53.669545 14011 net.cpp:165] Memory required for data: 29622272
I1119 19:24:53.669549 14011 layer_factory.hpp:77] Creating layer h_17_lstm1_unit_17_1_split
I1119 19:24:53.669554 14011 net.cpp:100] Creating Layer h_17_lstm1_unit_17_1_split
I1119 19:24:53.669559 14011 net.cpp:434] h_17_lstm1_unit_17_1_split <- h_17
I1119 19:24:53.669565 14011 net.cpp:408] h_17_lstm1_unit_17_1_split -> h_17_lstm1_unit_17_1_split_0
I1119 19:24:53.669572 14011 net.cpp:408] h_17_lstm1_unit_17_1_split -> h_17_lstm1_unit_17_1_split_1
I1119 19:24:53.669600 14011 net.cpp:150] Setting up h_17_lstm1_unit_17_1_split
I1119 19:24:53.669608 14011 net.cpp:157] Top shape: 1 128 128 (16384)
I1119 19:24:53.669613 14011 net.cpp:157] Top shape: 1 128 128 (16384)
I1119 19:24:53.669616 14011 net.cpp:165] Memory required for data: 29753344
I1119 19:24:53.669620 14011 layer_factory.hpp:77] Creating layer lstm1_h_conted_17
I1119 19:24:53.669626 14011 net.cpp:100] Creating Layer lstm1_h_conted_17
I1119 19:24:53.669631 14011 net.cpp:434] lstm1_h_conted_17 <- h_17_lstm1_unit_17_1_split_0
I1119 19:24:53.669636 14011 net.cpp:434] lstm1_h_conted_17 <- cont_18_lstm1_cont_slice_17_split_0
I1119 19:24:53.669642 14011 net.cpp:408] lstm1_h_conted_17 -> h_conted_17
I1119 19:24:53.669689 14011 net.cpp:150] Setting up lstm1_h_conted_17
I1119 19:24:53.669697 14011 net.cpp:157] Top shape: 1 128 128 (16384)
I1119 19:24:53.669701 14011 net.cpp:165] Memory required for data: 29818880
I1119 19:24:53.669705 14011 layer_factory.hpp:77] Creating layer lstm1_transform_18
I1119 19:24:53.669713 14011 net.cpp:100] Creating Layer lstm1_transform_18
I1119 19:24:53.669718 14011 net.cpp:434] lstm1_transform_18 <- h_conted_17
I1119 19:24:53.669723 14011 net.cpp:408] lstm1_transform_18 -> W_hc_h_17
I1119 19:24:53.670173 14011 net.cpp:150] Setting up lstm1_transform_18
I1119 19:24:53.670183 14011 net.cpp:157] Top shape: 1 128 512 (65536)
I1119 19:24:53.670187 14011 net.cpp:165] Memory required for data: 30081024
I1119 19:24:53.670192 14011 net.cpp:493] Sharing parameters 'W_hc' owned by layer 'lstm1_transform_1', param index 0
I1119 19:24:53.670197 14011 layer_factory.hpp:77] Creating layer lstm1_gate_input_18
I1119 19:24:53.670202 14011 net.cpp:100] Creating Layer lstm1_gate_input_18
I1119 19:24:53.670207 14011 net.cpp:434] lstm1_gate_input_18 <- W_hc_h_17
I1119 19:24:53.670212 14011 net.cpp:434] lstm1_gate_input_18 <- W_xc_x_18
I1119 19:24:53.670218 14011 net.cpp:408] lstm1_gate_input_18 -> gate_input_18
I1119 19:24:53.670238 14011 net.cpp:150] Setting up lstm1_gate_input_18
I1119 19:24:53.670246 14011 net.cpp:157] Top shape: 1 128 512 (65536)
I1119 19:24:53.670250 14011 net.cpp:165] Memory required for data: 30343168
I1119 19:24:53.670254 14011 layer_factory.hpp:77] Creating layer lstm1_unit_18
I1119 19:24:53.670260 14011 net.cpp:100] Creating Layer lstm1_unit_18
I1119 19:24:53.670265 14011 net.cpp:434] lstm1_unit_18 <- c_17
I1119 19:24:53.670271 14011 net.cpp:434] lstm1_unit_18 <- gate_input_18
I1119 19:24:53.670277 14011 net.cpp:434] lstm1_unit_18 <- cont_18_lstm1_cont_slice_17_split_1
I1119 19:24:53.670284 14011 net.cpp:408] lstm1_unit_18 -> c_18
I1119 19:24:53.670291 14011 net.cpp:408] lstm1_unit_18 -> h_18
I1119 19:24:53.670334 14011 net.cpp:150] Setting up lstm1_unit_18
I1119 19:24:53.670343 14011 net.cpp:157] Top shape: 1 128 128 (16384)
I1119 19:24:53.670348 14011 net.cpp:157] Top shape: 1 128 128 (16384)
I1119 19:24:53.670352 14011 net.cpp:165] Memory required for data: 30474240
I1119 19:24:53.670356 14011 layer_factory.hpp:77] Creating layer h_18_lstm1_unit_18_1_split
I1119 19:24:53.670367 14011 net.cpp:100] Creating Layer h_18_lstm1_unit_18_1_split
I1119 19:24:53.670373 14011 net.cpp:434] h_18_lstm1_unit_18_1_split <- h_18
I1119 19:24:53.670379 14011 net.cpp:408] h_18_lstm1_unit_18_1_split -> h_18_lstm1_unit_18_1_split_0
I1119 19:24:53.670387 14011 net.cpp:408] h_18_lstm1_unit_18_1_split -> h_18_lstm1_unit_18_1_split_1
I1119 19:24:53.670415 14011 net.cpp:150] Setting up h_18_lstm1_unit_18_1_split
I1119 19:24:53.670423 14011 net.cpp:157] Top shape: 1 128 128 (16384)
I1119 19:24:53.670428 14011 net.cpp:157] Top shape: 1 128 128 (16384)
I1119 19:24:53.670433 14011 net.cpp:165] Memory required for data: 30605312
I1119 19:24:53.670436 14011 layer_factory.hpp:77] Creating layer lstm1_h_conted_18
I1119 19:24:53.670442 14011 net.cpp:100] Creating Layer lstm1_h_conted_18
I1119 19:24:53.670446 14011 net.cpp:434] lstm1_h_conted_18 <- h_18_lstm1_unit_18_1_split_0
I1119 19:24:53.670452 14011 net.cpp:434] lstm1_h_conted_18 <- cont_19_lstm1_cont_slice_18_split_0
I1119 19:24:53.670459 14011 net.cpp:408] lstm1_h_conted_18 -> h_conted_18
I1119 19:24:53.670502 14011 net.cpp:150] Setting up lstm1_h_conted_18
I1119 19:24:53.670511 14011 net.cpp:157] Top shape: 1 128 128 (16384)
I1119 19:24:53.670514 14011 net.cpp:165] Memory required for data: 30670848
I1119 19:24:53.670518 14011 layer_factory.hpp:77] Creating layer lstm1_transform_19
I1119 19:24:53.670524 14011 net.cpp:100] Creating Layer lstm1_transform_19
I1119 19:24:53.670529 14011 net.cpp:434] lstm1_transform_19 <- h_conted_18
I1119 19:24:53.670536 14011 net.cpp:408] lstm1_transform_19 -> W_hc_h_18
I1119 19:24:53.670989 14011 net.cpp:150] Setting up lstm1_transform_19
I1119 19:24:53.671000 14011 net.cpp:157] Top shape: 1 128 512 (65536)
I1119 19:24:53.671003 14011 net.cpp:165] Memory required for data: 30932992
I1119 19:24:53.671008 14011 net.cpp:493] Sharing parameters 'W_hc' owned by layer 'lstm1_transform_1', param index 0
I1119 19:24:53.671013 14011 layer_factory.hpp:77] Creating layer lstm1_gate_input_19
I1119 19:24:53.671018 14011 net.cpp:100] Creating Layer lstm1_gate_input_19
I1119 19:24:53.671023 14011 net.cpp:434] lstm1_gate_input_19 <- W_hc_h_18
I1119 19:24:53.671028 14011 net.cpp:434] lstm1_gate_input_19 <- W_xc_x_19
I1119 19:24:53.671034 14011 net.cpp:408] lstm1_gate_input_19 -> gate_input_19
I1119 19:24:53.671056 14011 net.cpp:150] Setting up lstm1_gate_input_19
I1119 19:24:53.671063 14011 net.cpp:157] Top shape: 1 128 512 (65536)
I1119 19:24:53.671067 14011 net.cpp:165] Memory required for data: 31195136
I1119 19:24:53.671072 14011 layer_factory.hpp:77] Creating layer lstm1_unit_19
I1119 19:24:53.671077 14011 net.cpp:100] Creating Layer lstm1_unit_19
I1119 19:24:53.671082 14011 net.cpp:434] lstm1_unit_19 <- c_18
I1119 19:24:53.671087 14011 net.cpp:434] lstm1_unit_19 <- gate_input_19
I1119 19:24:53.671093 14011 net.cpp:434] lstm1_unit_19 <- cont_19_lstm1_cont_slice_18_split_1
I1119 19:24:53.671100 14011 net.cpp:408] lstm1_unit_19 -> c_19
I1119 19:24:53.671108 14011 net.cpp:408] lstm1_unit_19 -> h_19
I1119 19:24:53.671154 14011 net.cpp:150] Setting up lstm1_unit_19
I1119 19:24:53.671161 14011 net.cpp:157] Top shape: 1 128 128 (16384)
I1119 19:24:53.671166 14011 net.cpp:157] Top shape: 1 128 128 (16384)
I1119 19:24:53.671170 14011 net.cpp:165] Memory required for data: 31326208
I1119 19:24:53.671175 14011 layer_factory.hpp:77] Creating layer h_19_lstm1_unit_19_1_split
I1119 19:24:53.671180 14011 net.cpp:100] Creating Layer h_19_lstm1_unit_19_1_split
I1119 19:24:53.671185 14011 net.cpp:434] h_19_lstm1_unit_19_1_split <- h_19
I1119 19:24:53.671191 14011 net.cpp:408] h_19_lstm1_unit_19_1_split -> h_19_lstm1_unit_19_1_split_0
I1119 19:24:53.671205 14011 net.cpp:408] h_19_lstm1_unit_19_1_split -> h_19_lstm1_unit_19_1_split_1
I1119 19:24:53.671234 14011 net.cpp:150] Setting up h_19_lstm1_unit_19_1_split
I1119 19:24:53.671242 14011 net.cpp:157] Top shape: 1 128 128 (16384)
I1119 19:24:53.671247 14011 net.cpp:157] Top shape: 1 128 128 (16384)
I1119 19:24:53.671252 14011 net.cpp:165] Memory required for data: 31457280
I1119 19:24:53.671255 14011 layer_factory.hpp:77] Creating layer lstm1_h_conted_19
I1119 19:24:53.671279 14011 net.cpp:100] Creating Layer lstm1_h_conted_19
I1119 19:24:53.671285 14011 net.cpp:434] lstm1_h_conted_19 <- h_19_lstm1_unit_19_1_split_0
I1119 19:24:53.671290 14011 net.cpp:434] lstm1_h_conted_19 <- cont_20_lstm1_cont_slice_19_split_0
I1119 19:24:53.671298 14011 net.cpp:408] lstm1_h_conted_19 -> h_conted_19
I1119 19:24:53.671345 14011 net.cpp:150] Setting up lstm1_h_conted_19
I1119 19:24:53.671355 14011 net.cpp:157] Top shape: 1 128 128 (16384)
I1119 19:24:53.671358 14011 net.cpp:165] Memory required for data: 31522816
I1119 19:24:53.671363 14011 layer_factory.hpp:77] Creating layer lstm1_transform_20
I1119 19:24:53.671370 14011 net.cpp:100] Creating Layer lstm1_transform_20
I1119 19:24:53.671375 14011 net.cpp:434] lstm1_transform_20 <- h_conted_19
I1119 19:24:53.671381 14011 net.cpp:408] lstm1_transform_20 -> W_hc_h_19
I1119 19:24:53.671840 14011 net.cpp:150] Setting up lstm1_transform_20
I1119 19:24:53.671851 14011 net.cpp:157] Top shape: 1 128 512 (65536)
I1119 19:24:53.671855 14011 net.cpp:165] Memory required for data: 31784960
I1119 19:24:53.671860 14011 net.cpp:493] Sharing parameters 'W_hc' owned by layer 'lstm1_transform_1', param index 0
I1119 19:24:53.671864 14011 layer_factory.hpp:77] Creating layer lstm1_gate_input_20
I1119 19:24:53.671870 14011 net.cpp:100] Creating Layer lstm1_gate_input_20
I1119 19:24:53.671876 14011 net.cpp:434] lstm1_gate_input_20 <- W_hc_h_19
I1119 19:24:53.671881 14011 net.cpp:434] lstm1_gate_input_20 <- W_xc_x_20
I1119 19:24:53.671888 14011 net.cpp:408] lstm1_gate_input_20 -> gate_input_20
I1119 19:24:53.671910 14011 net.cpp:150] Setting up lstm1_gate_input_20
I1119 19:24:53.671917 14011 net.cpp:157] Top shape: 1 128 512 (65536)
I1119 19:24:53.671921 14011 net.cpp:165] Memory required for data: 32047104
I1119 19:24:53.671926 14011 layer_factory.hpp:77] Creating layer lstm1_unit_20
I1119 19:24:53.671931 14011 net.cpp:100] Creating Layer lstm1_unit_20
I1119 19:24:53.671936 14011 net.cpp:434] lstm1_unit_20 <- c_19
I1119 19:24:53.671941 14011 net.cpp:434] lstm1_unit_20 <- gate_input_20
I1119 19:24:53.671947 14011 net.cpp:434] lstm1_unit_20 <- cont_20_lstm1_cont_slice_19_split_1
I1119 19:24:53.671952 14011 net.cpp:408] lstm1_unit_20 -> c_20
I1119 19:24:53.671960 14011 net.cpp:408] lstm1_unit_20 -> h_20
I1119 19:24:53.671996 14011 net.cpp:150] Setting up lstm1_unit_20
I1119 19:24:53.672004 14011 net.cpp:157] Top shape: 1 128 128 (16384)
I1119 19:24:53.672010 14011 net.cpp:157] Top shape: 1 128 128 (16384)
I1119 19:24:53.672013 14011 net.cpp:165] Memory required for data: 32178176
I1119 19:24:53.672017 14011 layer_factory.hpp:77] Creating layer h_20_lstm1_unit_20_1_split
I1119 19:24:53.672022 14011 net.cpp:100] Creating Layer h_20_lstm1_unit_20_1_split
I1119 19:24:53.672035 14011 net.cpp:434] h_20_lstm1_unit_20_1_split <- h_20
I1119 19:24:53.672041 14011 net.cpp:408] h_20_lstm1_unit_20_1_split -> h_20_lstm1_unit_20_1_split_0
I1119 19:24:53.672055 14011 net.cpp:408] h_20_lstm1_unit_20_1_split -> h_20_lstm1_unit_20_1_split_1
I1119 19:24:53.672111 14011 net.cpp:150] Setting up h_20_lstm1_unit_20_1_split
I1119 19:24:53.672127 14011 net.cpp:157] Top shape: 1 128 128 (16384)
I1119 19:24:53.672139 14011 net.cpp:157] Top shape: 1 128 128 (16384)
I1119 19:24:53.672143 14011 net.cpp:165] Memory required for data: 32309248
I1119 19:24:53.672147 14011 layer_factory.hpp:77] Creating layer lstm1_h_conted_20
I1119 19:24:53.672154 14011 net.cpp:100] Creating Layer lstm1_h_conted_20
I1119 19:24:53.672160 14011 net.cpp:434] lstm1_h_conted_20 <- h_20_lstm1_unit_20_1_split_0
I1119 19:24:53.672165 14011 net.cpp:434] lstm1_h_conted_20 <- cont_21_lstm1_cont_slice_20_split_0
I1119 19:24:53.672173 14011 net.cpp:408] lstm1_h_conted_20 -> h_conted_20
I1119 19:24:53.672219 14011 net.cpp:150] Setting up lstm1_h_conted_20
I1119 19:24:53.672228 14011 net.cpp:157] Top shape: 1 128 128 (16384)
I1119 19:24:53.672232 14011 net.cpp:165] Memory required for data: 32374784
I1119 19:24:53.672236 14011 layer_factory.hpp:77] Creating layer lstm1_transform_21
I1119 19:24:53.672242 14011 net.cpp:100] Creating Layer lstm1_transform_21
I1119 19:24:53.672247 14011 net.cpp:434] lstm1_transform_21 <- h_conted_20
I1119 19:24:53.672253 14011 net.cpp:408] lstm1_transform_21 -> W_hc_h_20
I1119 19:24:53.672703 14011 net.cpp:150] Setting up lstm1_transform_21
I1119 19:24:53.672713 14011 net.cpp:157] Top shape: 1 128 512 (65536)
I1119 19:24:53.672716 14011 net.cpp:165] Memory required for data: 32636928
I1119 19:24:53.672721 14011 net.cpp:493] Sharing parameters 'W_hc' owned by layer 'lstm1_transform_1', param index 0
I1119 19:24:53.672725 14011 layer_factory.hpp:77] Creating layer lstm1_gate_input_21
I1119 19:24:53.672731 14011 net.cpp:100] Creating Layer lstm1_gate_input_21
I1119 19:24:53.672737 14011 net.cpp:434] lstm1_gate_input_21 <- W_hc_h_20
I1119 19:24:53.672742 14011 net.cpp:434] lstm1_gate_input_21 <- W_xc_x_21
I1119 19:24:53.672747 14011 net.cpp:408] lstm1_gate_input_21 -> gate_input_21
I1119 19:24:53.672768 14011 net.cpp:150] Setting up lstm1_gate_input_21
I1119 19:24:53.672776 14011 net.cpp:157] Top shape: 1 128 512 (65536)
I1119 19:24:53.672780 14011 net.cpp:165] Memory required for data: 32899072
I1119 19:24:53.672783 14011 layer_factory.hpp:77] Creating layer lstm1_unit_21
I1119 19:24:53.672789 14011 net.cpp:100] Creating Layer lstm1_unit_21
I1119 19:24:53.672796 14011 net.cpp:434] lstm1_unit_21 <- c_20
I1119 19:24:53.672801 14011 net.cpp:434] lstm1_unit_21 <- gate_input_21
I1119 19:24:53.672806 14011 net.cpp:434] lstm1_unit_21 <- cont_21_lstm1_cont_slice_20_split_1
I1119 19:24:53.672811 14011 net.cpp:408] lstm1_unit_21 -> c_21
I1119 19:24:53.672819 14011 net.cpp:408] lstm1_unit_21 -> h_21
I1119 19:24:53.672855 14011 net.cpp:150] Setting up lstm1_unit_21
I1119 19:24:53.672863 14011 net.cpp:157] Top shape: 1 128 128 (16384)
I1119 19:24:53.672868 14011 net.cpp:157] Top shape: 1 128 128 (16384)
I1119 19:24:53.672873 14011 net.cpp:165] Memory required for data: 33030144
I1119 19:24:53.672876 14011 layer_factory.hpp:77] Creating layer h_21_lstm1_unit_21_1_split
I1119 19:24:53.672881 14011 net.cpp:100] Creating Layer h_21_lstm1_unit_21_1_split
I1119 19:24:53.672886 14011 net.cpp:434] h_21_lstm1_unit_21_1_split <- h_21
I1119 19:24:53.672893 14011 net.cpp:408] h_21_lstm1_unit_21_1_split -> h_21_lstm1_unit_21_1_split_0
I1119 19:24:53.672900 14011 net.cpp:408] h_21_lstm1_unit_21_1_split -> h_21_lstm1_unit_21_1_split_1
I1119 19:24:53.672935 14011 net.cpp:150] Setting up h_21_lstm1_unit_21_1_split
I1119 19:24:53.672942 14011 net.cpp:157] Top shape: 1 128 128 (16384)
I1119 19:24:53.672947 14011 net.cpp:157] Top shape: 1 128 128 (16384)
I1119 19:24:53.672951 14011 net.cpp:165] Memory required for data: 33161216
I1119 19:24:53.672955 14011 layer_factory.hpp:77] Creating layer lstm1_h_conted_21
I1119 19:24:53.672961 14011 net.cpp:100] Creating Layer lstm1_h_conted_21
I1119 19:24:53.672967 14011 net.cpp:434] lstm1_h_conted_21 <- h_21_lstm1_unit_21_1_split_0
I1119 19:24:53.672972 14011 net.cpp:434] lstm1_h_conted_21 <- cont_22_lstm1_cont_slice_21_split_0
I1119 19:24:53.672978 14011 net.cpp:408] lstm1_h_conted_21 -> h_conted_21
I1119 19:24:53.673024 14011 net.cpp:150] Setting up lstm1_h_conted_21
I1119 19:24:53.673033 14011 net.cpp:157] Top shape: 1 128 128 (16384)
I1119 19:24:53.673036 14011 net.cpp:165] Memory required for data: 33226752
I1119 19:24:53.673040 14011 layer_factory.hpp:77] Creating layer lstm1_transform_22
I1119 19:24:53.673048 14011 net.cpp:100] Creating Layer lstm1_transform_22
I1119 19:24:53.673053 14011 net.cpp:434] lstm1_transform_22 <- h_conted_21
I1119 19:24:53.673058 14011 net.cpp:408] lstm1_transform_22 -> W_hc_h_21
I1119 19:24:53.673506 14011 net.cpp:150] Setting up lstm1_transform_22
I1119 19:24:53.673517 14011 net.cpp:157] Top shape: 1 128 512 (65536)
I1119 19:24:53.673521 14011 net.cpp:165] Memory required for data: 33488896
I1119 19:24:53.673526 14011 net.cpp:493] Sharing parameters 'W_hc' owned by layer 'lstm1_transform_1', param index 0
I1119 19:24:53.673530 14011 layer_factory.hpp:77] Creating layer lstm1_gate_input_22
I1119 19:24:53.673535 14011 net.cpp:100] Creating Layer lstm1_gate_input_22
I1119 19:24:53.673542 14011 net.cpp:434] lstm1_gate_input_22 <- W_hc_h_21
I1119 19:24:53.673547 14011 net.cpp:434] lstm1_gate_input_22 <- W_xc_x_22
I1119 19:24:53.673552 14011 net.cpp:408] lstm1_gate_input_22 -> gate_input_22
I1119 19:24:53.673571 14011 net.cpp:150] Setting up lstm1_gate_input_22
I1119 19:24:53.673579 14011 net.cpp:157] Top shape: 1 128 512 (65536)
I1119 19:24:53.673583 14011 net.cpp:165] Memory required for data: 33751040
I1119 19:24:53.673588 14011 layer_factory.hpp:77] Creating layer lstm1_unit_22
I1119 19:24:53.673593 14011 net.cpp:100] Creating Layer lstm1_unit_22
I1119 19:24:53.673599 14011 net.cpp:434] lstm1_unit_22 <- c_21
I1119 19:24:53.673604 14011 net.cpp:434] lstm1_unit_22 <- gate_input_22
I1119 19:24:53.673609 14011 net.cpp:434] lstm1_unit_22 <- cont_22_lstm1_cont_slice_21_split_1
I1119 19:24:53.673616 14011 net.cpp:408] lstm1_unit_22 -> c_22
I1119 19:24:53.673624 14011 net.cpp:408] lstm1_unit_22 -> h_22
I1119 19:24:53.673660 14011 net.cpp:150] Setting up lstm1_unit_22
I1119 19:24:53.673667 14011 net.cpp:157] Top shape: 1 128 128 (16384)
I1119 19:24:53.673673 14011 net.cpp:157] Top shape: 1 128 128 (16384)
I1119 19:24:53.673676 14011 net.cpp:165] Memory required for data: 33882112
I1119 19:24:53.673681 14011 layer_factory.hpp:77] Creating layer h_22_lstm1_unit_22_1_split
I1119 19:24:53.673686 14011 net.cpp:100] Creating Layer h_22_lstm1_unit_22_1_split
I1119 19:24:53.673691 14011 net.cpp:434] h_22_lstm1_unit_22_1_split <- h_22
I1119 19:24:53.673697 14011 net.cpp:408] h_22_lstm1_unit_22_1_split -> h_22_lstm1_unit_22_1_split_0
I1119 19:24:53.673704 14011 net.cpp:408] h_22_lstm1_unit_22_1_split -> h_22_lstm1_unit_22_1_split_1
I1119 19:24:53.673739 14011 net.cpp:150] Setting up h_22_lstm1_unit_22_1_split
I1119 19:24:53.673748 14011 net.cpp:157] Top shape: 1 128 128 (16384)
I1119 19:24:53.673753 14011 net.cpp:157] Top shape: 1 128 128 (16384)
I1119 19:24:53.673756 14011 net.cpp:165] Memory required for data: 34013184
I1119 19:24:53.673760 14011 layer_factory.hpp:77] Creating layer lstm1_h_conted_22
I1119 19:24:53.673782 14011 net.cpp:100] Creating Layer lstm1_h_conted_22
I1119 19:24:53.673789 14011 net.cpp:434] lstm1_h_conted_22 <- h_22_lstm1_unit_22_1_split_0
I1119 19:24:53.673794 14011 net.cpp:434] lstm1_h_conted_22 <- cont_23_lstm1_cont_slice_22_split_0
I1119 19:24:53.673801 14011 net.cpp:408] lstm1_h_conted_22 -> h_conted_22
I1119 19:24:53.673847 14011 net.cpp:150] Setting up lstm1_h_conted_22
I1119 19:24:53.673856 14011 net.cpp:157] Top shape: 1 128 128 (16384)
I1119 19:24:53.673861 14011 net.cpp:165] Memory required for data: 34078720
I1119 19:24:53.673864 14011 layer_factory.hpp:77] Creating layer lstm1_transform_23
I1119 19:24:53.673877 14011 net.cpp:100] Creating Layer lstm1_transform_23
I1119 19:24:53.673882 14011 net.cpp:434] lstm1_transform_23 <- h_conted_22
I1119 19:24:53.673889 14011 net.cpp:408] lstm1_transform_23 -> W_hc_h_22
I1119 19:24:53.674338 14011 net.cpp:150] Setting up lstm1_transform_23
I1119 19:24:53.674348 14011 net.cpp:157] Top shape: 1 128 512 (65536)
I1119 19:24:53.674352 14011 net.cpp:165] Memory required for data: 34340864
I1119 19:24:53.674357 14011 net.cpp:493] Sharing parameters 'W_hc' owned by layer 'lstm1_transform_1', param index 0
I1119 19:24:53.674361 14011 layer_factory.hpp:77] Creating layer lstm1_gate_input_23
I1119 19:24:53.674367 14011 net.cpp:100] Creating Layer lstm1_gate_input_23
I1119 19:24:53.674372 14011 net.cpp:434] lstm1_gate_input_23 <- W_hc_h_22
I1119 19:24:53.674377 14011 net.cpp:434] lstm1_gate_input_23 <- W_xc_x_23
I1119 19:24:53.674384 14011 net.cpp:408] lstm1_gate_input_23 -> gate_input_23
I1119 19:24:53.674404 14011 net.cpp:150] Setting up lstm1_gate_input_23
I1119 19:24:53.674412 14011 net.cpp:157] Top shape: 1 128 512 (65536)
I1119 19:24:53.674417 14011 net.cpp:165] Memory required for data: 34603008
I1119 19:24:53.674420 14011 layer_factory.hpp:77] Creating layer lstm1_unit_23
I1119 19:24:53.674425 14011 net.cpp:100] Creating Layer lstm1_unit_23
I1119 19:24:53.674432 14011 net.cpp:434] lstm1_unit_23 <- c_22
I1119 19:24:53.674437 14011 net.cpp:434] lstm1_unit_23 <- gate_input_23
I1119 19:24:53.674441 14011 net.cpp:434] lstm1_unit_23 <- cont_23_lstm1_cont_slice_22_split_1
I1119 19:24:53.674448 14011 net.cpp:408] lstm1_unit_23 -> c_23
I1119 19:24:53.674455 14011 net.cpp:408] lstm1_unit_23 -> h_23
I1119 19:24:53.674499 14011 net.cpp:150] Setting up lstm1_unit_23
I1119 19:24:53.674507 14011 net.cpp:157] Top shape: 1 128 128 (16384)
I1119 19:24:53.674512 14011 net.cpp:157] Top shape: 1 128 128 (16384)
I1119 19:24:53.674516 14011 net.cpp:165] Memory required for data: 34734080
I1119 19:24:53.674520 14011 layer_factory.hpp:77] Creating layer h_23_lstm1_unit_23_1_split
I1119 19:24:53.674525 14011 net.cpp:100] Creating Layer h_23_lstm1_unit_23_1_split
I1119 19:24:53.674530 14011 net.cpp:434] h_23_lstm1_unit_23_1_split <- h_23
I1119 19:24:53.674536 14011 net.cpp:408] h_23_lstm1_unit_23_1_split -> h_23_lstm1_unit_23_1_split_0
I1119 19:24:53.674544 14011 net.cpp:408] h_23_lstm1_unit_23_1_split -> h_23_lstm1_unit_23_1_split_1
I1119 19:24:53.674580 14011 net.cpp:150] Setting up h_23_lstm1_unit_23_1_split
I1119 19:24:53.674589 14011 net.cpp:157] Top shape: 1 128 128 (16384)
I1119 19:24:53.674594 14011 net.cpp:157] Top shape: 1 128 128 (16384)
I1119 19:24:53.674598 14011 net.cpp:165] Memory required for data: 34865152
I1119 19:24:53.674602 14011 layer_factory.hpp:77] Creating layer lstm1_h_conted_23
I1119 19:24:53.674607 14011 net.cpp:100] Creating Layer lstm1_h_conted_23
I1119 19:24:53.674612 14011 net.cpp:434] lstm1_h_conted_23 <- h_23_lstm1_unit_23_1_split_0
I1119 19:24:53.674618 14011 net.cpp:434] lstm1_h_conted_23 <- cont_24_lstm1_cont_slice_23_split_0
I1119 19:24:53.674623 14011 net.cpp:408] lstm1_h_conted_23 -> h_conted_23
I1119 19:24:53.674669 14011 net.cpp:150] Setting up lstm1_h_conted_23
I1119 19:24:53.674679 14011 net.cpp:157] Top shape: 1 128 128 (16384)
I1119 19:24:53.674682 14011 net.cpp:165] Memory required for data: 34930688
I1119 19:24:53.674686 14011 layer_factory.hpp:77] Creating layer lstm1_transform_24
I1119 19:24:53.674701 14011 net.cpp:100] Creating Layer lstm1_transform_24
I1119 19:24:53.674707 14011 net.cpp:434] lstm1_transform_24 <- h_conted_23
I1119 19:24:53.674713 14011 net.cpp:408] lstm1_transform_24 -> W_hc_h_23
I1119 19:24:53.675161 14011 net.cpp:150] Setting up lstm1_transform_24
I1119 19:24:53.675171 14011 net.cpp:157] Top shape: 1 128 512 (65536)
I1119 19:24:53.675175 14011 net.cpp:165] Memory required for data: 35192832
I1119 19:24:53.675179 14011 net.cpp:493] Sharing parameters 'W_hc' owned by layer 'lstm1_transform_1', param index 0
I1119 19:24:53.675184 14011 layer_factory.hpp:77] Creating layer lstm1_gate_input_24
I1119 19:24:53.675190 14011 net.cpp:100] Creating Layer lstm1_gate_input_24
I1119 19:24:53.675195 14011 net.cpp:434] lstm1_gate_input_24 <- W_hc_h_23
I1119 19:24:53.675200 14011 net.cpp:434] lstm1_gate_input_24 <- W_xc_x_24
I1119 19:24:53.675206 14011 net.cpp:408] lstm1_gate_input_24 -> gate_input_24
I1119 19:24:53.675226 14011 net.cpp:150] Setting up lstm1_gate_input_24
I1119 19:24:53.675235 14011 net.cpp:157] Top shape: 1 128 512 (65536)
I1119 19:24:53.675238 14011 net.cpp:165] Memory required for data: 35454976
I1119 19:24:53.675242 14011 layer_factory.hpp:77] Creating layer lstm1_unit_24
I1119 19:24:53.675248 14011 net.cpp:100] Creating Layer lstm1_unit_24
I1119 19:24:53.675252 14011 net.cpp:434] lstm1_unit_24 <- c_23
I1119 19:24:53.675258 14011 net.cpp:434] lstm1_unit_24 <- gate_input_24
I1119 19:24:53.675266 14011 net.cpp:434] lstm1_unit_24 <- cont_24_lstm1_cont_slice_23_split_1
I1119 19:24:53.675271 14011 net.cpp:408] lstm1_unit_24 -> c_24
I1119 19:24:53.675279 14011 net.cpp:408] lstm1_unit_24 -> h_24
I1119 19:24:53.675315 14011 net.cpp:150] Setting up lstm1_unit_24
I1119 19:24:53.675323 14011 net.cpp:157] Top shape: 1 128 128 (16384)
I1119 19:24:53.675328 14011 net.cpp:157] Top shape: 1 128 128 (16384)
I1119 19:24:53.675333 14011 net.cpp:165] Memory required for data: 35586048
I1119 19:24:53.675336 14011 layer_factory.hpp:77] Creating layer h_24_lstm1_unit_24_1_split
I1119 19:24:53.675341 14011 net.cpp:100] Creating Layer h_24_lstm1_unit_24_1_split
I1119 19:24:53.675346 14011 net.cpp:434] h_24_lstm1_unit_24_1_split <- h_24
I1119 19:24:53.675354 14011 net.cpp:408] h_24_lstm1_unit_24_1_split -> h_24_lstm1_unit_24_1_split_0
I1119 19:24:53.675361 14011 net.cpp:408] h_24_lstm1_unit_24_1_split -> h_24_lstm1_unit_24_1_split_1
I1119 19:24:53.675395 14011 net.cpp:150] Setting up h_24_lstm1_unit_24_1_split
I1119 19:24:53.675403 14011 net.cpp:157] Top shape: 1 128 128 (16384)
I1119 19:24:53.675408 14011 net.cpp:157] Top shape: 1 128 128 (16384)
I1119 19:24:53.675412 14011 net.cpp:165] Memory required for data: 35717120
I1119 19:24:53.675416 14011 layer_factory.hpp:77] Creating layer lstm1_h_conted_24
I1119 19:24:53.675422 14011 net.cpp:100] Creating Layer lstm1_h_conted_24
I1119 19:24:53.675427 14011 net.cpp:434] lstm1_h_conted_24 <- h_24_lstm1_unit_24_1_split_0
I1119 19:24:53.675433 14011 net.cpp:434] lstm1_h_conted_24 <- cont_25_lstm1_cont_slice_24_split_0
I1119 19:24:53.675439 14011 net.cpp:408] lstm1_h_conted_24 -> h_conted_24
I1119 19:24:53.675484 14011 net.cpp:150] Setting up lstm1_h_conted_24
I1119 19:24:53.675493 14011 net.cpp:157] Top shape: 1 128 128 (16384)
I1119 19:24:53.675496 14011 net.cpp:165] Memory required for data: 35782656
I1119 19:24:53.675500 14011 layer_factory.hpp:77] Creating layer lstm1_transform_25
I1119 19:24:53.675506 14011 net.cpp:100] Creating Layer lstm1_transform_25
I1119 19:24:53.675513 14011 net.cpp:434] lstm1_transform_25 <- h_conted_24
I1119 19:24:53.675518 14011 net.cpp:408] lstm1_transform_25 -> W_hc_h_24
I1119 19:24:53.676837 14011 net.cpp:150] Setting up lstm1_transform_25
I1119 19:24:53.676853 14011 net.cpp:157] Top shape: 1 128 512 (65536)
I1119 19:24:53.676857 14011 net.cpp:165] Memory required for data: 36044800
I1119 19:24:53.676863 14011 net.cpp:493] Sharing parameters 'W_hc' owned by layer 'lstm1_transform_1', param index 0
I1119 19:24:53.676868 14011 layer_factory.hpp:77] Creating layer lstm1_gate_input_25
I1119 19:24:53.676875 14011 net.cpp:100] Creating Layer lstm1_gate_input_25
I1119 19:24:53.676882 14011 net.cpp:434] lstm1_gate_input_25 <- W_hc_h_24
I1119 19:24:53.676887 14011 net.cpp:434] lstm1_gate_input_25 <- W_xc_x_25
I1119 19:24:53.676893 14011 net.cpp:408] lstm1_gate_input_25 -> gate_input_25
I1119 19:24:53.676918 14011 net.cpp:150] Setting up lstm1_gate_input_25
I1119 19:24:53.676926 14011 net.cpp:157] Top shape: 1 128 512 (65536)
I1119 19:24:53.676930 14011 net.cpp:165] Memory required for data: 36306944
I1119 19:24:53.676934 14011 layer_factory.hpp:77] Creating layer lstm1_unit_25
I1119 19:24:53.676939 14011 net.cpp:100] Creating Layer lstm1_unit_25
I1119 19:24:53.676945 14011 net.cpp:434] lstm1_unit_25 <- c_24
I1119 19:24:53.676950 14011 net.cpp:434] lstm1_unit_25 <- gate_input_25
I1119 19:24:53.676956 14011 net.cpp:434] lstm1_unit_25 <- cont_25_lstm1_cont_slice_24_split_1
I1119 19:24:53.676962 14011 net.cpp:408] lstm1_unit_25 -> c_25
I1119 19:24:53.676970 14011 net.cpp:408] lstm1_unit_25 -> h_25
I1119 19:24:53.677007 14011 net.cpp:150] Setting up lstm1_unit_25
I1119 19:24:53.677016 14011 net.cpp:157] Top shape: 1 128 128 (16384)
I1119 19:24:53.677021 14011 net.cpp:157] Top shape: 1 128 128 (16384)
I1119 19:24:53.677024 14011 net.cpp:165] Memory required for data: 36438016
I1119 19:24:53.677028 14011 layer_factory.hpp:77] Creating layer h_25_lstm1_unit_25_1_split
I1119 19:24:53.677034 14011 net.cpp:100] Creating Layer h_25_lstm1_unit_25_1_split
I1119 19:24:53.677039 14011 net.cpp:434] h_25_lstm1_unit_25_1_split <- h_25
I1119 19:24:53.677045 14011 net.cpp:408] h_25_lstm1_unit_25_1_split -> h_25_lstm1_unit_25_1_split_0
I1119 19:24:53.677053 14011 net.cpp:408] h_25_lstm1_unit_25_1_split -> h_25_lstm1_unit_25_1_split_1
I1119 19:24:53.677090 14011 net.cpp:150] Setting up h_25_lstm1_unit_25_1_split
I1119 19:24:53.677099 14011 net.cpp:157] Top shape: 1 128 128 (16384)
I1119 19:24:53.677104 14011 net.cpp:157] Top shape: 1 128 128 (16384)
I1119 19:24:53.677109 14011 net.cpp:165] Memory required for data: 36569088
I1119 19:24:53.677112 14011 layer_factory.hpp:77] Creating layer lstm1_h_conted_25
I1119 19:24:53.677119 14011 net.cpp:100] Creating Layer lstm1_h_conted_25
I1119 19:24:53.677124 14011 net.cpp:434] lstm1_h_conted_25 <- h_25_lstm1_unit_25_1_split_0
I1119 19:24:53.677129 14011 net.cpp:434] lstm1_h_conted_25 <- cont_26_lstm1_cont_slice_25_split_0
I1119 19:24:53.677136 14011 net.cpp:408] lstm1_h_conted_25 -> h_conted_25
I1119 19:24:53.677186 14011 net.cpp:150] Setting up lstm1_h_conted_25
I1119 19:24:53.677194 14011 net.cpp:157] Top shape: 1 128 128 (16384)
I1119 19:24:53.677198 14011 net.cpp:165] Memory required for data: 36634624
I1119 19:24:53.677202 14011 layer_factory.hpp:77] Creating layer lstm1_transform_26
I1119 19:24:53.677208 14011 net.cpp:100] Creating Layer lstm1_transform_26
I1119 19:24:53.677214 14011 net.cpp:434] lstm1_transform_26 <- h_conted_25
I1119 19:24:53.677220 14011 net.cpp:408] lstm1_transform_26 -> W_hc_h_25
I1119 19:24:53.677671 14011 net.cpp:150] Setting up lstm1_transform_26
I1119 19:24:53.677681 14011 net.cpp:157] Top shape: 1 128 512 (65536)
I1119 19:24:53.677685 14011 net.cpp:165] Memory required for data: 36896768
I1119 19:24:53.677690 14011 net.cpp:493] Sharing parameters 'W_hc' owned by layer 'lstm1_transform_1', param index 0
I1119 19:24:53.677695 14011 layer_factory.hpp:77] Creating layer lstm1_gate_input_26
I1119 19:24:53.677702 14011 net.cpp:100] Creating Layer lstm1_gate_input_26
I1119 19:24:53.677707 14011 net.cpp:434] lstm1_gate_input_26 <- W_hc_h_25
I1119 19:24:53.677712 14011 net.cpp:434] lstm1_gate_input_26 <- W_xc_x_26
I1119 19:24:53.677719 14011 net.cpp:408] lstm1_gate_input_26 -> gate_input_26
I1119 19:24:53.677740 14011 net.cpp:150] Setting up lstm1_gate_input_26
I1119 19:24:53.677748 14011 net.cpp:157] Top shape: 1 128 512 (65536)
I1119 19:24:53.677752 14011 net.cpp:165] Memory required for data: 37158912
I1119 19:24:53.677757 14011 layer_factory.hpp:77] Creating layer lstm1_unit_26
I1119 19:24:53.677762 14011 net.cpp:100] Creating Layer lstm1_unit_26
I1119 19:24:53.677767 14011 net.cpp:434] lstm1_unit_26 <- c_25
I1119 19:24:53.677772 14011 net.cpp:434] lstm1_unit_26 <- gate_input_26
I1119 19:24:53.677776 14011 net.cpp:434] lstm1_unit_26 <- cont_26_lstm1_cont_slice_25_split_1
I1119 19:24:53.677783 14011 net.cpp:408] lstm1_unit_26 -> c_26
I1119 19:24:53.677791 14011 net.cpp:408] lstm1_unit_26 -> h_26
I1119 19:24:53.677827 14011 net.cpp:150] Setting up lstm1_unit_26
I1119 19:24:53.677835 14011 net.cpp:157] Top shape: 1 128 128 (16384)
I1119 19:24:53.677840 14011 net.cpp:157] Top shape: 1 128 128 (16384)
I1119 19:24:53.677845 14011 net.cpp:165] Memory required for data: 37289984
I1119 19:24:53.677848 14011 layer_factory.hpp:77] Creating layer h_26_lstm1_unit_26_1_split
I1119 19:24:53.677853 14011 net.cpp:100] Creating Layer h_26_lstm1_unit_26_1_split
I1119 19:24:53.677860 14011 net.cpp:434] h_26_lstm1_unit_26_1_split <- h_26
I1119 19:24:53.677865 14011 net.cpp:408] h_26_lstm1_unit_26_1_split -> h_26_lstm1_unit_26_1_split_0
I1119 19:24:53.677872 14011 net.cpp:408] h_26_lstm1_unit_26_1_split -> h_26_lstm1_unit_26_1_split_1
I1119 19:24:53.677899 14011 net.cpp:150] Setting up h_26_lstm1_unit_26_1_split
I1119 19:24:53.677907 14011 net.cpp:157] Top shape: 1 128 128 (16384)
I1119 19:24:53.677912 14011 net.cpp:157] Top shape: 1 128 128 (16384)
I1119 19:24:53.677915 14011 net.cpp:165] Memory required for data: 37421056
I1119 19:24:53.677919 14011 layer_factory.hpp:77] Creating layer lstm1_h_conted_26
I1119 19:24:53.677925 14011 net.cpp:100] Creating Layer lstm1_h_conted_26
I1119 19:24:53.677932 14011 net.cpp:434] lstm1_h_conted_26 <- h_26_lstm1_unit_26_1_split_0
I1119 19:24:53.677937 14011 net.cpp:434] lstm1_h_conted_26 <- cont_27_lstm1_cont_slice_26_split_0
I1119 19:24:53.677943 14011 net.cpp:408] lstm1_h_conted_26 -> h_conted_26
I1119 19:24:53.677999 14011 net.cpp:150] Setting up lstm1_h_conted_26
I1119 19:24:53.678009 14011 net.cpp:157] Top shape: 1 128 128 (16384)
I1119 19:24:53.678012 14011 net.cpp:165] Memory required for data: 37486592
I1119 19:24:53.678016 14011 layer_factory.hpp:77] Creating layer lstm1_transform_27
I1119 19:24:53.678022 14011 net.cpp:100] Creating Layer lstm1_transform_27
I1119 19:24:53.678027 14011 net.cpp:434] lstm1_transform_27 <- h_conted_26
I1119 19:24:53.678035 14011 net.cpp:408] lstm1_transform_27 -> W_hc_h_26
I1119 19:24:53.678490 14011 net.cpp:150] Setting up lstm1_transform_27
I1119 19:24:53.678501 14011 net.cpp:157] Top shape: 1 128 512 (65536)
I1119 19:24:53.678505 14011 net.cpp:165] Memory required for data: 37748736
I1119 19:24:53.678509 14011 net.cpp:493] Sharing parameters 'W_hc' owned by layer 'lstm1_transform_1', param index 0
I1119 19:24:53.678514 14011 layer_factory.hpp:77] Creating layer lstm1_gate_input_27
I1119 19:24:53.678521 14011 net.cpp:100] Creating Layer lstm1_gate_input_27
I1119 19:24:53.678526 14011 net.cpp:434] lstm1_gate_input_27 <- W_hc_h_26
I1119 19:24:53.678531 14011 net.cpp:434] lstm1_gate_input_27 <- W_xc_x_27
I1119 19:24:53.678539 14011 net.cpp:408] lstm1_gate_input_27 -> gate_input_27
I1119 19:24:53.678560 14011 net.cpp:150] Setting up lstm1_gate_input_27
I1119 19:24:53.678568 14011 net.cpp:157] Top shape: 1 128 512 (65536)
I1119 19:24:53.678571 14011 net.cpp:165] Memory required for data: 38010880
I1119 19:24:53.678575 14011 layer_factory.hpp:77] Creating layer lstm1_unit_27
I1119 19:24:53.678581 14011 net.cpp:100] Creating Layer lstm1_unit_27
I1119 19:24:53.678586 14011 net.cpp:434] lstm1_unit_27 <- c_26
I1119 19:24:53.678591 14011 net.cpp:434] lstm1_unit_27 <- gate_input_27
I1119 19:24:53.678597 14011 net.cpp:434] lstm1_unit_27 <- cont_27_lstm1_cont_slice_26_split_1
I1119 19:24:53.678603 14011 net.cpp:408] lstm1_unit_27 -> c_27
I1119 19:24:53.678611 14011 net.cpp:408] lstm1_unit_27 -> h_27
I1119 19:24:53.678647 14011 net.cpp:150] Setting up lstm1_unit_27
I1119 19:24:53.678655 14011 net.cpp:157] Top shape: 1 128 128 (16384)
I1119 19:24:53.678660 14011 net.cpp:157] Top shape: 1 128 128 (16384)
I1119 19:24:53.678663 14011 net.cpp:165] Memory required for data: 38141952
I1119 19:24:53.678668 14011 layer_factory.hpp:77] Creating layer h_27_lstm1_unit_27_1_split
I1119 19:24:53.678673 14011 net.cpp:100] Creating Layer h_27_lstm1_unit_27_1_split
I1119 19:24:53.678678 14011 net.cpp:434] h_27_lstm1_unit_27_1_split <- h_27
I1119 19:24:53.678683 14011 net.cpp:408] h_27_lstm1_unit_27_1_split -> h_27_lstm1_unit_27_1_split_0
I1119 19:24:53.678691 14011 net.cpp:408] h_27_lstm1_unit_27_1_split -> h_27_lstm1_unit_27_1_split_1
I1119 19:24:53.678725 14011 net.cpp:150] Setting up h_27_lstm1_unit_27_1_split
I1119 19:24:53.678733 14011 net.cpp:157] Top shape: 1 128 128 (16384)
I1119 19:24:53.678738 14011 net.cpp:157] Top shape: 1 128 128 (16384)
I1119 19:24:53.678741 14011 net.cpp:165] Memory required for data: 38273024
I1119 19:24:53.678746 14011 layer_factory.hpp:77] Creating layer lstm1_h_conted_27
I1119 19:24:53.678751 14011 net.cpp:100] Creating Layer lstm1_h_conted_27
I1119 19:24:53.678757 14011 net.cpp:434] lstm1_h_conted_27 <- h_27_lstm1_unit_27_1_split_0
I1119 19:24:53.678762 14011 net.cpp:434] lstm1_h_conted_27 <- cont_28_lstm1_cont_slice_27_split_0
I1119 19:24:53.678769 14011 net.cpp:408] lstm1_h_conted_27 -> h_conted_27
I1119 19:24:53.678822 14011 net.cpp:150] Setting up lstm1_h_conted_27
I1119 19:24:53.678831 14011 net.cpp:157] Top shape: 1 128 128 (16384)
I1119 19:24:53.678835 14011 net.cpp:165] Memory required for data: 38338560
I1119 19:24:53.678839 14011 layer_factory.hpp:77] Creating layer lstm1_transform_28
I1119 19:24:53.678845 14011 net.cpp:100] Creating Layer lstm1_transform_28
I1119 19:24:53.678851 14011 net.cpp:434] lstm1_transform_28 <- h_conted_27
I1119 19:24:53.678858 14011 net.cpp:408] lstm1_transform_28 -> W_hc_h_27
I1119 19:24:53.679306 14011 net.cpp:150] Setting up lstm1_transform_28
I1119 19:24:53.679316 14011 net.cpp:157] Top shape: 1 128 512 (65536)
I1119 19:24:53.679319 14011 net.cpp:165] Memory required for data: 38600704
I1119 19:24:53.679324 14011 net.cpp:493] Sharing parameters 'W_hc' owned by layer 'lstm1_transform_1', param index 0
I1119 19:24:53.679329 14011 layer_factory.hpp:77] Creating layer lstm1_gate_input_28
I1119 19:24:53.679334 14011 net.cpp:100] Creating Layer lstm1_gate_input_28
I1119 19:24:53.679340 14011 net.cpp:434] lstm1_gate_input_28 <- W_hc_h_27
I1119 19:24:53.679345 14011 net.cpp:434] lstm1_gate_input_28 <- W_xc_x_28
I1119 19:24:53.679359 14011 net.cpp:408] lstm1_gate_input_28 -> gate_input_28
I1119 19:24:53.679381 14011 net.cpp:150] Setting up lstm1_gate_input_28
I1119 19:24:53.679390 14011 net.cpp:157] Top shape: 1 128 512 (65536)
I1119 19:24:53.679394 14011 net.cpp:165] Memory required for data: 38862848
I1119 19:24:53.679397 14011 layer_factory.hpp:77] Creating layer lstm1_unit_28
I1119 19:24:53.679409 14011 net.cpp:100] Creating Layer lstm1_unit_28
I1119 19:24:53.679415 14011 net.cpp:434] lstm1_unit_28 <- c_27
I1119 19:24:53.679420 14011 net.cpp:434] lstm1_unit_28 <- gate_input_28
I1119 19:24:53.679425 14011 net.cpp:434] lstm1_unit_28 <- cont_28_lstm1_cont_slice_27_split_1
I1119 19:24:53.679432 14011 net.cpp:408] lstm1_unit_28 -> c_28
I1119 19:24:53.679440 14011 net.cpp:408] lstm1_unit_28 -> h_28
I1119 19:24:53.679484 14011 net.cpp:150] Setting up lstm1_unit_28
I1119 19:24:53.679492 14011 net.cpp:157] Top shape: 1 128 128 (16384)
I1119 19:24:53.679497 14011 net.cpp:157] Top shape: 1 128 128 (16384)
I1119 19:24:53.679502 14011 net.cpp:165] Memory required for data: 38993920
I1119 19:24:53.679505 14011 layer_factory.hpp:77] Creating layer lstm1_
I1119 19:24:53.679510 14011 net.cpp:100] Creating Layer lstm1_
I1119 19:24:53.679517 14011 net.cpp:434] lstm1_ <- c_28
I1119 19:24:53.679522 14011 net.cpp:408] lstm1_ -> c_T
I1119 19:24:53.679540 14011 net.cpp:150] Setting up lstm1_
I1119 19:24:53.679548 14011 net.cpp:157] Top shape: 1 128 128 (16384)
I1119 19:24:53.679551 14011 net.cpp:165] Memory required for data: 39059456
I1119 19:24:53.679555 14011 layer_factory.hpp:77] Creating layer lstm1_h_concat
I1119 19:24:53.679564 14011 net.cpp:100] Creating Layer lstm1_h_concat
I1119 19:24:53.679569 14011 net.cpp:434] lstm1_h_concat <- h_1_lstm1_unit_1_1_split_1
I1119 19:24:53.679575 14011 net.cpp:434] lstm1_h_concat <- h_2_lstm1_unit_2_1_split_1
…
I1119 19:24:53.681828 14011 net.cpp:228] lstm1_ does not need backward computation.
I1119 19:24:53.681833 14011 net.cpp:270] This network produces output c_T
I1119 19:24:53.681838 14011 net.cpp:270] This network produces output h_pseudoloss
I1119 19:24:53.683269 14011 net.cpp:283] Network initialization done.
I1119 19:24:53.683468 14011 recurrent_layer.cpp:150] Adding parameter 0: W_xc
I1119 19:24:53.683476 14011 recurrent_layer.cpp:150] Adding parameter 1: b_c
I1119 19:24:53.683488 14011 recurrent_layer.cpp:150] Adding parameter 2: W_hc
I1119 19:24:53.683847 14011 net.cpp:150] Setting up lstm1
I1119 19:24:53.683859 14011 net.cpp:157] Top shape: 28 128 128 (458752)
I1119 19:24:53.683863 14011 net.cpp:165] Memory required for data: 2667008
I1119 19:24:53.683897 14011 layer_factory.hpp:77] Creating layer slice
I1119 19:24:53.683915 14011 net.cpp:100] Creating Layer slice
I1119 19:24:53.683928 14011 net.cpp:434] slice <- lstm1
I1119 19:24:53.683941 14011 net.cpp:408] slice -> output1
I1119 19:24:53.683956 14011 net.cpp:408] slice -> output2
I1119 19:24:53.684000 14011 net.cpp:150] Setting up slice
I1119 19:24:53.684007 14011 net.cpp:157] Top shape: 27 128 128 (442368)
I1119 19:24:53.684012 14011 net.cpp:157] Top shape: 1 128 128 (16384)
I1119 19:24:53.684016 14011 net.cpp:165] Memory required for data: 4502016
I1119 19:24:53.684020 14011 layer_factory.hpp:77] Creating layer reshape2
I1119 19:24:53.684026 14011 net.cpp:100] Creating Layer reshape2
I1119 19:24:53.684031 14011 net.cpp:434] reshape2 <- output2
I1119 19:24:53.684044 14011 net.cpp:408] reshape2 -> reshape2
I1119 19:24:53.684067 14011 net.cpp:150] Setting up reshape2
I1119 19:24:53.684075 14011 net.cpp:157] Top shape: 128 1 128 (16384)
I1119 19:24:53.684079 14011 net.cpp:165] Memory required for data: 4567552
I1119 19:24:53.684083 14011 layer_factory.hpp:77] Creating layer fc
I1119 19:24:53.684090 14011 net.cpp:100] Creating Layer fc
I1119 19:24:53.684095 14011 net.cpp:434] fc <- reshape2
I1119 19:24:53.684101 14011 net.cpp:408] fc -> fc
I1119 19:24:53.684203 14011 net.cpp:150] Setting up fc
I1119 19:24:53.684212 14011 net.cpp:157] Top shape: 128 10 (1280)
I1119 19:24:53.684216 14011 net.cpp:165] Memory required for data: 4572672
I1119 19:24:53.684224 14011 layer_factory.hpp:77] Creating layer loss
I1119 19:24:53.684232 14011 net.cpp:100] Creating Layer loss
I1119 19:24:53.684237 14011 net.cpp:434] loss <- fc
I1119 19:24:53.684242 14011 net.cpp:434] loss <- label
I1119 19:24:53.684248 14011 net.cpp:408] loss -> loss
I1119 19:24:53.684257 14011 layer_factory.hpp:77] Creating layer loss
…
